experiments/02_synthetic_injection/model_T4100g3p5_prom0p01_HPF_perturbedAmp.pt (torch, 378639 bytes, 8 tensors)

amplitudes f8 [11759]
0	0xc006ce93ae5b00c1	-2.8508676167985816
1	0xc01b54bd60ff79fe	-6.832753673165369
2	0xc01325ad13fbd48e	-4.786793052907468
3	0xc013e3af030eee41	-4.972347305094048
4	0xc01375a88022651d	-4.864900590991309
5	0xc01abec51b2f08c0	-6.68629877543043
6	0xc013661e440409b5	-4.849724829431968
7	0xc01286b277e257d5	-4.631540177526365
8	0xc0029f5fb70529bf	-2.3278192804766316
9	0xc014d548ee430b32	-5.208286021081948
10	0xc01a34166a281dec	-6.55086675519804
11	0xc01993920b194797	-6.3941117986850236
12	0xc012ed80501893a2	-4.731934787273447
13	0xc007ea1b70ec8ae0	-2.989310152262405
14	0xc003072937df1edb	-2.37849658631954
15	0xc012e1df73397806	-4.7205789569688985
16	0xc012bd6319c0302b	-4.68494835124515
17	0xc00f5a540bf427bf	-3.919105618847396
18	0xc0166e3b3bb133bb	-5.6076478316217
19	0xc0126db1cae85f72	-4.607123537476456
20	0xc018f4aa3a7ca0cb	-6.2389306200568155
21	0xc017e8b8adee03a3	-5.977266996052012
22	0xc01a2271904fbc45	-6.53363633619944
23	0xc003c9b61fb61c4a	-2.4734919049692836
24	0xc01634338fd25d88	-5.550977942671473
25	0xc0152818e500b708	-5.289157465141905
26	0xc01552327a05d29b	-5.330270678143871
27	0xc015e0b0d2816496	-5.46942452349426
28	0xc0110e2111302876	-4.263798016132673
29	0xc00dadcc907351fa	-3.70986283161096
30	0xc0019cb10926ac67	-2.2015095438887786
31	0xc01487ce3b750b64	-5.132622651118115
32	0xc0128690b626913f	-4.6314114056625035
33	0xc017753b17a9438b	-5.8644832322178315
34	0xc016e20d71667764	-5.720754405859996
35	0xc017a827b2c6f9e7	-5.91421393718199
36	0xc015ef2df6d57e33	-5.483573776989533
37	0xc010f8a6d1186bd8	-4.242823855510288
38	0xc0171a2b7ec26d13	-5.775556545845819
39	0xc011311ea59f273c	-4.297968471373505
40	0xc013b9ee4f0fcb8a	-4.931573138560347
41	0xc01891e97ada30d1	-6.142492217604926
42	0xc01361df69376254	-4.845578807835938
43	0xc0170b0a850c526d	-5.760782317044328
44	0xc015e706ea2a207e	-5.475612315007423
45	0xc01446d1976ee2f0	-5.069158903258298
46	0xc018441507995c6a	-6.066486471877491
47	0xc005d748c7e5b725	-2.7301192872026996
48	0xc011040c1baa9147	-4.253952438626874
49	0xc015406baa3384fc	-5.312910708803653
50	0xc01192c948f3c682	-4.393345966223594
51	0xc011de33497c8d5c	-4.466992519595205
52	0xc01398b4c0741798	-4.899127013288215
53	0xc00c7ca3124ea96e	-3.56085790922696
54	0xc018620de31707f6	-6.09575609996863
55	0xc016a61a6451de33	-5.662210052010368
56	0xc01815f535084ca9	-6.021443203574713
57	0xc0117e505dafc9ee	-4.373353446821495
58	0xc018b6578890527c	-6.17806828862069
59	0xc00980b66586c0c8	-3.187847893881642
60	0xc0100852e6fec992	-4.0081287472734335
61	0xc00349a7da427c7f	-2.410964684633256
62	0xc010348ebaa2e089	-4.051325718108395
63	0xc019f4fabcfe99eb	-6.4892377405544535
64	0xc0157bafa3467b81	-5.370787192513377
65	0xc0118daab6706c2a	-4.388346529590345
66	0xc00ffdb992dc1625	-3.9988891099371977
67	0xc01512a23566634a	-5.268196901678332
68	0xc018224afc35e925	-6.033489170828294
69	0xc00ccecd41814263	-3.600977432019407
70	0xc00efb47f8d2ce19	-3.8726958693821527
71	0xc0151751c9cacf6a	-5.272772934917024
72	0xc01446509639293a	-5.06866678928264
73	0xc014cea8c947de70	-5.201815743457345
74	0xc00f309020e5310c	-3.8987124032920573
75	0xc01968e8a19fb7f6	-6.352449918149423
76	0xc017966969551d37	-5.89688648778911
77	0xc017f25eef510b18	-5.986690272637837
78	0xc016db1576d48e32	-5.713949066851955
79	0xc0136d1ced92be93	-4.8565556641402905
80	0xc0145c749239d05f	-5.090288433817562
81	0xc013b707ceea7ce2	-4.928740723669053
82	0xc011c3950ffd1651	-4.440998315641608
83	0xc015b36427dfdf94	-5.425186751402993
84	0xc00e2f34de25589c	-3.773050055994714
85	0xc010df921500af98	-4.218330696265092
86	0xc011afa2b4a4ff28	-4.421519110270118
87	0xc012f1308e003257	-4.7355367839450855
88	0xc0038a6e147505c3	-2.4425927732670245
89	0xc0184cedd96a6369	-6.0751260729965475
90	0xc00eacc0bb08604a	-3.834351979439849
91	0xc0182c9c6259fa46	-6.043565308324622
92	0xc0178f49010bc763	-5.889926925987171
93	0xc00f20bc1869ef8a	-3.8909837634400377
94	0xc00d14f8ab3b4e01	-3.6352399232362136
95	0xc01232e269d97d3f	-4.549691823863497
96	0xc0078aad82f91e6c	-2.9427137596392665
97	0xc011ac20cff55e2c	-4.418093919135156
98	0xc011c2e28cba9ac4	-4.440317343606413
99	0xc00e92da012e7751	-3.8217048733048746
100	0xc01497b1bcfce5c7	-5.148138955054896
101	0xc00f0d0a754c8d0d	-3.8813676036821847
102	0xc0075d662f372ba5	-2.9206050575935074
103	0xc01796e1451c321d	-5.897343711706097
104	0xc00a43d4406f5d53	-3.2831196817384494
105	0xc00f3e4f2f78a0c7	-3.905424471730018
106	0xc0150b27ddd78b81	-5.26089426639635
107	0xc01277cdc9941bdd	-4.616995954193922
108	0xc013666e0bbe0c3e	-4.850029166674231
109	0xc011d6abebb4c748	-4.459640200527993
110	0xc014090593c5ffeb	-5.008810337982122
111	0xc013a9338f6f5b36	-4.915235749408387
112	0xc014db05cea385f5	-5.213889340143841
113	0xc013143e538295ed	-4.769769005627933
114	0xc016d7830db6d22e	-5.710460867198476
115	0xc012be4c1042aa91	-4.6858370342912545
116	0xc00f3c9dc00ad7bc	-3.9045977595623906
117	0xc010ccf5315340f8	-4.200154085832985
118	0xc016f71a90db1b72	-5.741312278149836
119	0xc01209b5998d4fc1	-4.509481810808155
120	0xc010ffefc185321b	-4.249938033823606
121	0xc01052fff2af2696	-4.081054489078857
122	0xc0104e7945963f42	-4.076634490294795
123	0xc011975fb2ffb86e	-4.397826001031815
124	0xc00f062b86023961	-3.878012701933742
125	0xc01662ffb5cda9a9	-5.596678581884057
126	0xc014f9067cdbe9eb	-5.243188811228246
127	0xc00f67d353661af0	-3.925696040681366
128	0xc011ebc9adb4eb75	-4.480261530082193
129	0xc017e026a5e41f42	-5.968897430466145
130	0xc01c1bf0d050738b	-7.027285818968163
131	0xc00bfcc3caa4baf2	-3.4984203177949604
132	0xc0121cbd6f0e2a6e	-4.52806638263665
133	0xc014bb71a77911b8	-5.183050743832091
134	0xc01504732f1e3192	-5.254345642297624
135	0xc014f5e8469b0a77	-5.240143874371475
136	0xc0119f517d113dec	-4.4055842916272745
137	0xc00ec12832f7c20b	-3.8443149549350486
138	0xc012dec48e4b9ed1	-4.717546676030637
139	0xc011f173736aab3a	-4.485791972528029
140	0xc0140d23119d39bf	-5.01282908937577
141	0xc01784f3f1a53da1	-5.879836822233671
142	0xc019b3464df1c138	-6.425072877769985
143	0xc01b15142006ffd0	-6.770584583689882
144	0xc018e6d5660ecbbc	-6.225423426297251
145	0xc011f0f1fb240582	-4.485298084329203
146	0xc009ef5980d21136	-3.2418699325663978
147	0xc00c6ec8433a0e31	-3.554092908105098
148	0xc019aca02de3b876	-6.418579785369834
149	0xc012909aa15713c6	-4.641214867534421
150	0xc01772b7cb0bccfa	-5.862029240222222
151	0xc012494bc45995af	-4.571578090637032
152	0xc010d8b8a42a214d	-4.211641850539604
153	0xc014097a8feaf159	-5.009256600107926
154	0xc01398d817869043	-4.89926182516871
155	0xc014052d55cea8a9	-5.005055752504782
156	0xc00dcb404d05252c	-3.724243737906951
157	0xc012cd28d1019609	-4.700351014825636
158	0xc01307f2824930c5	-4.757761035649485
159	0xc0145b6084e24284	-5.089235378560833
160	0xc011bed455a1983c	-4.4363568668250615
161	0xc01397e9952dc634	-4.898351984900319
162	0xc0114dedba008eba	-4.326102167400387
163	0xc002c9ff53a6bc20	-2.34863152840218
164	0xc008a139de266e1f	-3.0787236552694277
165	0xc0166574279c963d	-5.599075907642654
166	0xc019663f3ad42fe5	-6.349850577545998
167	0xc019da9e0eae3fc2	-6.463493565926855
168	0xc0153beee8574658	-5.3085285475986765
169	0xc018c8385516340a	-6.195527390937977
170	0xc010969a59bb94ce	-4.147073175500919
171	0xc01839b799a3c83d	-6.05636444151065
172	0xc01701536bffad01	-5.751294791679585
173	0xc012c2f43087472d	-4.6903846342627675
174	0xc01296ec9a83a7cd	-4.647386945996868
175	0xc01022eb15faa1d3	-4.034099906370517
176	0xc01643099bdcb14d	-5.565466342301375
177	0xc011caed1ebb6024	-4.448170166193481
178	0xc013cccfbf7872c1	-4.950011245466784
179	0xc013f8fb786ea55e	-4.993146783593458
180	0xc01379bba8835182	-4.868879921927489
181	0xc011fccb1f3f21a1	-4.496868599155648
182	0xc015c17cfe146578	-5.438953371043105
183	0xc014637f395c2b9c	-5.097165008783943
184	0xc019f8a5d71ca126	-6.49282013046494
185	0xc016414579683f41	-5.563741585719812
186	0xc017a4bed818699e	-5.910884262552285
187	0xc0113dcb47402050	-4.310345757760004
188	0xc01b30add20d4b52	-6.797538072644629
189	0xc0166de33b2fdb42	-5.607312130733421
190	0xc0161fb4df95b275	-5.530963414680277
191	0xc00caf574ee58c15	-3.585615745907044
192	0xc01158d81232a9ec	-4.336761745779295
193	0xc01098798ef85f50	-4.148901208791202
194	0xc00f61bf051edd23	-3.9227276229900254
195	0xc007a1e8c2f75e89	-2.954057238744842
196	0xc00ac7d1734407a2	-3.3475674634109547
197	0xc00cf9d779434ed7	-3.6219930146852266
198	0xc011f100f5eaeb14	-4.485355226958536
199	0xc014606b482a263d	-5.094159247944444
200	0xc00e4cffbb071492	-3.787597142366004
201	0xc0117c8d5456347f	-4.3716328790297885
202	0xc016c86211944924	-5.695686602283136
203	0xc00f900e54f754f4	-3.9453398359279337
204	0xc00c13d794ae16e9	-3.509688531458654
205	0xc00f2aed120c89d8	-3.8959599886013443
206	0xc016f3012ece478b	-5.737309199657726
207	0xc007779294d80a89	-2.933385050623944
208	0xc011f511eec664d5	-4.489326220377923
209	0xc018bcf86e1b55cf	-6.184541435640724
210	0xc0099efb26a2ceec	-3.2026274698672434
211	0xc009a1a337096496	-3.203924589132451
212	0xc010a71238cfb773	-4.163155448606505
213	0xc012fcf0b53bdc54	-4.747011977938275
214	0xc012d525b8f45b2d	-4.708151712335888
215	0xc01aa1f2a9a40f27	-6.658152247084025
216	0xc0112d2c03b2b9d7	-4.29411321428639
217	0xc01ac096cc739284	-6.688075251153922
218	0xc010a290fb15b1ce	-4.158756182860499
219	0xc01126adbe170d15	-4.287772150189331
220	0xc013467f72798cba	-4.818845547360235
221	0xc011626408b63b51	-4.346084724543133
222	0xc00f525f7d2f1534	-3.9152211933129824
223	0xc015d2deec26b131	-5.45592850671919
224	0xc01a3a8cdb8adb34	-6.557177954053987
225	0xc018097a119d168e	-6.009254718029878
226	0xc013485380a4d674	-4.820631036816497
227	0xc013a5dd2a795891	-4.911976493507738
228	0xc00f976bf7df2604	-3.9489364018415944
229	0xc011c1277354442e	-4.4386270542318425
230	0xc012b833107c3d15	-4.679882295210764
231	0xc018a7c0a0a67a6f	-6.163820753251101
232	0xc0171600d02bcd50	-5.77148747699114
233	0xc00cf0dabddc0eaf	-3.617604716566198
234	0xc0167a57dd652c42	-5.61947580270777
235	0xc010d191aff6663f	-4.204657315649057
236	0xc011d75873d7e5e7	-4.460298357059833
237	0xc019babce0b7c5a9	-6.43236113664299
238	0xc0122fb802ffaf17	-4.546600386481962
239	0xc018f1caebdbc0e0	-6.236125645911869
240	0xc01a68b9bbae29eb	-6.602271015648948
241	0xc016f18610cca7fe	-5.735862982264733
242	0xc01174ca37ffd762	-4.364052653303448
243	0xc01974d94dcc8fff	-6.364110198603156
244	0xc017f46a793d2912	-5.988687414510666
245	0xc0056035bdc5632f	-2.6719775033820024
246	0xc01341c3bcdb1d33	-4.814223242639218
247	0xc013bb0a8fa6abe3	-4.932657475040261
248	0xc0155bd5ce9c0dc8	-5.339682796740313
249	0xc0154fe8015e6d61	-5.328033467663176
250	0xc00e9a18c45e2b3c	-3.8252425519216597
251	0xc01176cd1fce26f1	-4.3660168618750825
252	0xc01455e539139d1b	-5.083882228681683
253	0xc016fb0b391b64c1	-5.7451600001306256
254	0xc01061b790b44cb1	-4.095426808361638
255	0xc010f4d0395a3ce8	-4.239075561649976

sigma_widths f8 [11759]
0	0xc00bbe9f4c6be4bd	-3.468077275316857
1	0xc0095abbe5672255	-3.1693036958788903
2	0xc00aaceeb0bf2a5d	-3.334439640840442
3	0xc00afac5a994f258	-3.372447323663703
4	0xc007968b0ae04fb0	-2.9485073899940843
5	0xc011ac0b41ae2703	-4.418011690382403
6	0xc00af05cd5dc3de4	-3.3673645694577647
7	0xc008c4afa71aab13	-3.0960381560338504
8	0xc008c8e751cb7b86	-3.0980974569533286
9	0xc007977849f032f3	-2.9489599014690326
10	0xc01034170b380e61	-4.050869155212781
11	0xc0102fb06391af38	-4.046571307913659
12	0xc0096d2a4035d8ce	-3.178303243296887
13	0xc00ca2f5ff20f1e0	-3.579570763771912
14	0xc00b9b315f4a5648	-3.450777763801657
15	0xc00e32868525a015	-3.774670639239057
16	0xc00c0a508909f02b	-3.505036421409405
17	0xc002609ec962fe1d	-2.297177861531749
18	0xc00ef01362f54948	-3.8672244769196915
19	0xc00cde2c44ade439	-3.608482872540233
20	0xc008db456d909de7	-3.107066017127852
21	0xc00c5883477c211e	-3.543219145274761
22	0xc0116d686a7ba610	-4.356843627736012
23	0xc0098473a6cffc0a	-3.189673712942299
24	0xc00de155f624d0d6	-3.7350272397980957
25	0xc00b9a82cce07d71	-3.4504447942742265
26	0xc00e9e2d4883dc5c	-3.8272348084679333
27	0xc00db123832a618f	-3.7114935157116586
28	0xc00b1ae8c8d04460	-3.388139313560302
29	0xc00ab912d505f65f	-3.340367950672586
30	0xc00778ba6584e70b	-2.9339492732223156
31	0xc00db1354cdbe665	-3.711527443371596
32	0xc008aa4d24c9b4db	-3.083154952436059
33	0xc00fae4561fb8383	-3.9600932745819946
34	0xc00b7c87b55768c0	-3.4358057181644597
35	0xc00ad78d845f16e2	-3.3552503911513307
36	0xc0071474693ceaae	-2.8849876615252787
37	0xc00b1f120ca6061f	-3.3901711452642895
38	0xc00d67dd9bdc857c	-3.675715654055862
39	0xc005cc1b60719ea2	-2.7246615919755905
40	0xc00da17563199965	-3.703837179392553
41	0xc00e1927d8caad68	-3.7622830330707764
42	0xc00b6945549f0335	-3.426401768782308
43	0xc00e72ebecbe4638	-3.8061140533034425
44	0xc00c9f15c18a4a68	-3.577678215058132
45	0xc00f1945742cb884	-3.887339503874559
46	0xc011d3b3413115ea	-4.4567384897431825
47	0xc008d27e6cf36228	-3.1027802001738287
48	0xc00c33b539964c3e	-3.5252480029098754
49	0xc00fcdcbf87e7c40	-3.975486699447657
50	0xc00b7c190f7ce529	-3.4355946741094567
51	0xc00ad3c4c64b8a82	-3.3534026614955232
52	0xc00b9aa7651a9474	-3.4505145930038967
53	0xc009830f8e042e5b	-3.1889945120836223
54	0xc0112e87cb1c417f	-4.295439885711288
55	0xc00d2183e9eebb2c	-3.641364886854168
56	0xc00e16a5fca73643	-3.761058782437233
57	0xc0086ffe186a1b13	-3.0546838672047527
58	0xc00c772866b93f7e	-3.5581825280459602
59	0xc00c6ae56c745517	-3.5521954033853365
60	0xc00bacc2350b3d69	-3.459354795842661
61	0xc00791a36a39accc	-2.9461124705172548
62	0xc00a8faae487b318	-3.320150170699332
63	0xc00e8672c9bbfef2	-3.815648628282241
64	0xc00e09992930ab4c	-3.754686662481083
65	0xc00ab473fd9d5330	-3.338111859668423
66	0xc009a2f9b4af219a	-3.204577838511068
67	0xc00ead4050d2ebbd	-3.8345953287475525
68	0xc00c04417b6ee9cc	-3.502078022310547
69	0xc00b70c5cbc4f36f	-3.430064765880551
70	0xc00e769e3ef5596b	-3.8079190176605855
71	0xc00d201d8c65e8a1	-3.640681359157569
72	0xc00d914a72dd5bba	-3.695942780857391
73	0xc00d53c2c23e1e86	-3.665898816605309
74	0xc00ca46ff7d66a74	-3.5802916872319717
75	0xc01116e75c0010df	-4.272366940979025
76	0xc00dc6c782cfb6b1	-3.72206022449867
77	0xc0103dc27a553512	-4.060312186670915
78	0xc00c35cf01ea68d8	-3.5262737416897885
79	0xc0078f47058e192f	-2.9449596818914396
80	0xc00e6250a8047be7	-3.7980054022186667
81	0xc00a6a18216c1a0c	-3.301803837882522
82	0xc00baf22649b00f5	-3.460514818172778
83	0xc00f2a33094d3c21	-3.8956051565833296
84	0xc00b6fd266cfd232	-3.429600527970501
85	0xc00cf35cbd411fd7	-3.6188292298793203
86	0xc00900ea20ba138c	-3.125446563414192
87	0xc00ac4d3badde875	-3.3461069678278883
88	0xc00ad1b43f42147d	-3.352394575313666
89	0xc00de2f386672947	-3.7358160495979607
90	0xc00a593916e40a3f	-3.2935659206716816
91	0xc00c29ab31c214fb	-3.5203460585931885
92	0xc00ec0606aacf807	-3.8439339002643496
93	0xc00d293776984bb5	-3.6451253190257042
94	0xc00aaa6b0afae6da	-3.3332119806117193
95	0xc00d0846fd65b9ba	-3.6290416523617894
96	0xc00b3514dd5abad4	-3.400918702441553
97	0xc006d79fe21c57a3	-2.8552854218387025
98	0xc00cb2e76e0814c2	-3.587355479833236
99	0xc00e6a682acc3362	-3.8019564956252205
100	0xc010853c59f57272	-4.1301130348261825
101	0xc007cfc64e011d9e	-2.9764524549570543
102	0xbffb01dfb252a976	-1.6879574743021215
103	0xc00e9939d8140107	-3.8248173600296727
104	0xc00d44eeb4afd4d9	-3.658658420196485
105	0xc00b3550663cda11	-3.401032255870867
106	0xc007b3b578fb7bab	-2.9627484752413316
107	0xc007467db4d1d470	-2.909419453290461
108	0xc007edb004af91fe	-2.991058384521465
109	0xc0087de481af9662	-3.061470997973445
110	0xc0074c6fe94af9ac	-2.912322828865589
111	0xc009f3799d6bc37c	-3.243884305812058
112	0xc00afc2f61f19845	-3.3731372501233943
113	0xc00c13b9bc029497	-3.509631604031323
114	0xc00be41332be53a6	-3.486364742692291
115	0xc009cfabbac82201	-3.226401766998834
116	0xc00a7bcb174ff254	-3.310445959212567
117	0xc00ae644cbcd425e	-3.3624359056487227
118	0xc00c0add58f07a4f	-3.5053049991977683
119	0xc00af7bd1294c3f9	-3.3709660960816987
120	0xc00beef82e3f9db7	-3.4916843045391164
121	0xc00c41799914a451	-3.531970210974159
122	0xc006b326dda7e1c7	-2.8374764744623664
123	0xc00bd87777209937	-3.480696612055137
124	0xc00417e645d5799c	-2.5116696792385493
125	0xc00ee38c4eef9c53	-3.861107460677468
126	0xc00bf505e96fdcb8	-3.494640182234061
127	0xc0094d5435a4d228	-3.162758273212848
128	0xc00cf3b762a1e9ca	-3.6190021234189986
129	0xc00db4eda1634735	-3.713343869058827
130	0xc00e987df4e30204	-3.824458993127566
131	0xc00bf2608436b946	-3.493348153038059
132	0xc00df735bbb0c3d2	-3.745707956630647
133	0xc00caf90d73dd0eb	-3.585725480627038
134	0xc00c67351bea20a8	-3.550394266207224
135	0xc00da22f69b48d11	-3.7041919954514317
136	0xc006791481358a0a	-2.8091211409057495
137	0xc006fc7ea7ec6401	-2.873288452054567
138	0xc00aac30370239b8	-3.3340763375810774
139	0xc00c70395476203c	-3.554796848158757
140	0xc00cf377b035668c	-3.618880631093651
141	0xc00ed979eda62375	-3.8561895910574386
142	0xc00e8e16fb64c464	-3.8193797721983618
143	0xc00f4a74d7704753	-3.9113556700839722
144	0xc00d3b6dcdc41e22	-3.6540180278277754
145	0xc00816b4542aab45	-3.0110861373445084
146	0xc00ab7579eeada7e	-3.339522592107925
147	0xc00dddd153362332	-3.7333094120880554
148	0xc00f6cdab7fa102b	-3.928151547735998
149	0xc00a27e943b50da8	-3.269487885439691
150	0xc00e27fb692b33d0	-3.7695224968251537
151	0xc0094eb7875c636b	-3.16343599081704
152	0xc00916344c052ba8	-3.135841936023514
153	0xc00bbf2202fb2c82	-3.468326590814798
154	0xc00d2c1f168773b7	-3.6465436706625627
155	0xc00e91629e5ea624	-3.820988881362398
156	0xc00907c2b60b6718	-3.128789350722297
157	0xc00b92112f6b0de4	-3.446321840719735
158	0xc009dc8a446ddfbb	-3.2326855989485614
159	0xc00d35ccc93df94f	-3.6512695047414705
160	0xc00857c160db2c5c	-3.042849308670652
161	0xc00cfc7079e5448c	-3.6232614062396973
162	0xc00a1329c203e728	-3.259356990570172
163	0xc00759bf40fae82b	-2.9188218189783774
164	0xc00a650fbd44f168	-3.29934642664573
165	0xc009d6db48a22a69	-3.229910438012031
166	0xc00d8fc0ed731f8c	-3.6951921988256284
167	0xc00e944a67b42023	-3.8224075414509726
168	0xc00cfe45b30c0a6e	-3.6241563785600226
169	0xc00ffc9b749f4d9d	-3.998343382941768
170	0xc00b2dfcbac1bee8	-3.3974546995522026
171	0xc00c4431cc5b9c86	-3.533298107667693
172	0xc00e5ed1abddc581	-3.79629835386794
173	0xc00a5d5e7138177f	-3.2955902905695775
174	0xc00af6015be2a913	-3.3701197794481543
175	0xc00a198a187ae22d	-3.262470427751643
176	0xc00df329792d97f4	-3.743731447891145
177	0xc007b3134f9265d9	-2.9624391762306286
178	0xc00949891652dfe8	-3.1609060043374377
179	0xc009763b5c093782	-3.182730406790996
180	0xc00e2bef093b928d	-3.7714520188622545
181	0xc009eec22d139948	-3.2415812989812913
182	0xc00bae48516a4e13	-3.460098873192473
183	0xc00bb216bed405cf	-3.4619574459509077
184	0xc010ea732e1dbf66	-4.228955002370503
185	0xc00e6906b2626404	-3.801282304408689
186	0xc00b823f14370732	-3.438596876077008
187	0xc004082b219d24ff	-2.503988516433878
188	0xc0109d782f450d9d	-4.153778780545875
189	0xc00cb35440ff49d1	-3.587563045302183
190	0xc00dee4ed272a483	-3.741361278651824
191	0xc004165ad48b0ae4	-2.5109154324467102
192	0xc00ac748d5231931	-3.3473068858467276
193	0xc008d770175d2d39	-3.105194265872026
194	0xc0098657c7582849	-3.1905971120623104
195	0xbffadf6bda9a343f	-1.6795462168841053
196	0xc0058cf0177a08f6	-2.693817313586915
197	0xc006a929b8633d8d	-2.832599106339052
198	0xc0029452ace85aa5	-2.322423315850147
199	0xc009e44f900e0a3e	-3.236479878834216
200	0xc008e7e606f9b661	-3.1132317109066183
201	0xc00b2f1d87bd01ff	-3.398005543189583
202	0xc00d50b3603fbb38	-3.6644046325158364
203	0xc00e24923a642575	-3.7678570329487067
204	0xc00a6560cf1b60cf	-3.299501054785743
205	0xc008cd45b889caa6	-3.100230638222757
206	0xc011034963ae1123	-4.253209645747378
207	0xc00b806686af22fd	-3.437695553035495
208	0xc008e33334c08478	-3.11093751156346
209	0xc00f31fcd858f9a6	-3.8994080450203965
210	0xc00be12755ff3b0f	-3.4849383085742214
211	0xc00e77bc14617eda	-3.8084642021420736
212	0xc009f43c3c9218b9	-3.2442555172047745
213	0xc00868d2d277d512	-3.051183361322395
214	0xc00823e9514c0301	-3.0175348616907063
215	0xc00b92b98db178b8	-3.4466429776940366
216	0xc00999ac8a67841a	-3.200036126407679
217	0xc00c45ceb66526bc	-3.5340856790179185
218	0xc009c678dab6fa96	-3.221910198887893
219	0xc00affc15e09fa7b	-3.3748805376811197
220	0xc00c1f52e775d513	-3.5152948458513804
221	0xc00732f239ff5d8d	-2.899876072984347
222	0xc00af71e050cc9cc	-3.370662726834075
223	0xc0086da9c7a69df2	-3.0535464856836763
224	0xc00b2b46e6cc1e74	-3.3961313277284777
225	0xc00b7f823ea22251	-3.4372601407269845
226	0xc00988a7c7bda241	-3.1917262654062886
227	0xc00c6da38efc18f8	-3.553534619396597
228	0xc007cdec770f2040	-2.9755486775866586
229	0xc00bb224008a43ea	-3.461982731074831
230	0xc00beada65d0b671	-3.4896743730849313
231	0xc009a134b25ad537	-3.203713792225837
232	0xc00c9001e04eefaa	-3.570316078576032
233	0xc005d797e6eb1254	-2.730270198868576
234	0xc00f83fa5ed39eb3	-3.9394423874217295
235	0xc00921b972ed7ca1	-3.141466997025035
236	0xc00adfd5b5afad17	-3.3592943376767255
237	0xc00e93dd59b05dd7	-3.822199536032467
238	0xc00a04255184cfc6	-3.252024304261769
239	0xc00cf711f05a4255	-3.620639684442987
240	0xc01092bd523520fe	-4.143300327770929
241	0xc00d492adc66087d	-3.660726281989865
242	0xc009664523f919ce	-3.1749365625757724
243	0xc00db5d9cc573781	-3.7137943233601054
244	0xc010891e8c6e28ec	-4.133905595992683
245	0xc00c5217e898738a	-3.5400846644901707
246	0xc00ac0f4e31f1f90	-3.3442170852540087
247	0xc00a410cf6e4dd46	-3.28176300893725
248	0xc00e7f2799960d1f	-3.8120872496525773
249	0xc01000864c55469a	-4.000512306885549
250	0xc009a2f8310bcb56	-3.2045749503826455
251	0xc00cec3390d454dd	-3.6153327288435393
252	0xc00a2bacc108f57d	-3.2713255959376384
253	0xc00b69f2e2d47cd2	-3.426732799634558
254	0xc007017e110e5896	-2.875728734255129
255	0xc00aebb1424b3168	-3.3650841883847313

gamma_widths f8 [11759]
0	0xc00a5eac45616b80	-3.296227018390198
1	0xc007fac8de5ca917	-2.9974534389522307
2	0xc0094cfba9b4b120	-3.162589383913783
3	0xc0099ad2a28a791b	-3.200597066737044
4	0xc006369803d5d673	-2.7766571330674252
5	0xc010fc11be28ea64	-4.246161433455743
6	0xc0099069ced1c4a7	-3.1955143125311056
7	0xc00764bca01031d6	-2.9241878991071912
8	0xc00768f44ac10249	-2.9262472000266695
9	0xc006378542e5b9b6	-2.7771096445423735
10	0xc00f083b0f65a385	-3.879018898286122
11	0xc00eff6dc018e534	-3.8747210509870005
12	0xc0080d37392b5f91	-3.006452986370228
13	0xc00b4302f81678a3	-3.4077205068452527
14	0xc00a3b3e583fdd0b	-3.278927506874998
15	0xc00cd2937e1b26d7	-3.6028203823123977
16	0xc00aaa5d81ff76ee	-3.333186164482746
17	0xc00100abc25884e0	-2.12532760460509
18	0xc00d90205bead00a	-3.695374219993032
19	0xc00b7e393da36afc	-3.436632615613574
20	0xc0077b52668624aa	-2.935215760201193
21	0xc00af8904071a7e1	-3.3713688883481017
22	0xc010bd6ee6f66972	-4.184993370809353
23	0xc00824809fc582cd	-3.01782345601564
24	0xc00c8162ef1a5799	-3.5631769828714366
25	0xc00a3a8fc5d60434	-3.2785945373475673
26	0xc00d3e3a4179631f	-3.655384551541274
27	0xc00c51307c1fe852	-3.5396432587849995
28	0xc009baf5c1c5cb23	-3.216289056633643
29	0xc009591fcdfb7d22	-3.168517693745927
30	0xc00618c75e7a6dcd	-2.762099016295656
31	0xc00c514245d16d28	-3.539677186444937
32	0xc0074a5a1dbf3b9d	-2.9113046955093993
33	0xc00e4e525af10a47	-3.788243017655336
34	0xc00a1c94ae4cef82	-3.2639554612378
35	0xc009779a7d549da5	-3.1834001342246716
36	0xc005b48162327171	-2.7131374045986196
37	0xc009bf1f059b8ce2	-3.2183208883376304
38	0xc00c07ea94d20c3f	-3.503865397129203
39	0xc0046c2859672565	-2.5528113350489314
40	0xc00c41825c0f2028	-3.5319869224658937
41	0xc00cb934d1c0342b	-3.5904327761441173
42	0xc00a09524d9489f8	-3.2545515118556487
43	0xc00d12f8e5b3ccfb	-3.6342637963767834
44	0xc00b3f22ba7fd12b	-3.4058279581314728
45	0xc00db9526d223f47	-3.7154892469478997
46	0xc01123b9bdabd94b	-4.284888232816523
47	0xc007728b65e8e8ea	-2.930929943247169
48	0xc00ad3c2328bd301	-3.3533977459832163
49	0xc00e6dd8f1740303	-3.803636442520998
50	0xc00a1c2608726bec	-3.2637444171827976
51	0xc00973d1bf411145	-3.181552404568864
52	0xc00a3ab45e101b37	-3.2786643360772376
53	0xc008231c86f9b51e	-3.017144255156963
54	0xc0107e8e479704e0	-4.123589628784629
55	0xc00bc190e2e441ef	-3.469514629927509
56	0xc00cb6b2f59cbd05	-3.5892085255105735
57	0xc007100b115fa1d5	-2.882833610278093
58	0xc00b17355faec640	-3.3863322711193007
59	0xc00b0af26569dbda	-3.3803451464586773
60	0xc00a4ccf2e00c42b	-3.2875045389160014
61	0xc00631b0632f338f	-2.7742622135905957
62	0xc0092fb7dd7d39da	-3.1482999137726724
63	0xc00d267fc2b185b5	-3.6437983713555817
64	0xc00ca9a62226320f	-3.5828364055544237
65	0xc0095480f692d9f2	-3.1662616027417636
66	0xc0084306ada4a85d	-3.032727581584409
67	0xc00d4d4d49c87280	-3.6627450718208934
68	0xc00aa44e7464708f	-3.330227765383888
69	0xc00a10d2c4ba7a32	-3.258214508953892
70	0xc00d16ab37eae02e	-3.6360687607339264
71	0xc00bc02a855b6f64	-3.4688311022309097
72	0xc00c31576bd2e27c	-3.5240925239307312
73	0xc00bf3cfbb33a549	-3.49404855967865
74	0xc00b447cf0cbf137	-3.4084414303053125
75	0xc01066edd87ad440	-4.100516684052366
76	0xc00c66d47bc53d73	-3.5502099675720102
77	0xc00f1b91ed9ff0e6	-3.8884619297442553
78	0xc00ad5dbfadfef9b	-3.3544234847631293
79	0xc0062f53fe839ff2	-2.7731094249647805
80	0xc00d025da0fa02aa	-3.6261551452920076
81	0xc0090a251a61a0cf	-3.129953580955863
82	0xc00a4f2f5d9087b8	-3.2886645612461187
83	0xc00dca400242c2e3	-3.72375489965667
84	0xc00a0fdf5fc558f5	-3.2577502710438417
85	0xc00b9369b636a69a	-3.446978972952661
86	0xc007a0f719af9a4f	-2.953596306487533
87	0xc00964e0b3d36f38	-3.174256710901229
88	0xc00971c138379b40	-3.180544318387007
89	0xc00c83007f5cb00a	-3.5639657926713015
90	0xc008f9460fd99102	-3.1217156637450225
91	0xc00ac9b82ab79bbe	-3.3484958016665294
92	0xc00d606d63a27eca	-3.6720836433376904
93	0xc00bc9446f8dd278	-3.473275062099045
94	0xc008b1bf6eacb6c7	-3.086790909429371
95	0xc00fc94d75a23aae	-3.973292273534148
96	0xc00706c595545716	-2.8783065477717953
97	0xc00d0f70a57e191b	-3.6325390748126103
98	0xc0099f8fbdc2e6d3	-3.20291088343661
99	0xc00c157b34dd10e3	-3.5104889039958933
100	0xc00e8eb18ee016e5	-3.8196746027123134
101	0xc008eb15f165b919	-3.114787946621743
102	0xc002245b80fb6b1a	-2.26775265471714
103	0xc0069b3506fdaa21	-2.825784735313633
104	0xc00b17d68ab62aed	-3.3866396748393215
105	0xc004b2e98c9e67b9	-2.587359522422926
106	0xc0063bbc49053352	-2.779167719336706
107	0xc00facd499eebc85	-3.9593898797971314
108	0xc00584f12340abe7	-2.689913058673017
109	0xc00d5b4b1b66040a	-3.669576849032187
110	0xc00228f4d82d0b71	-2.2699982537027883
111	0xc00bdf522b4a094a	-3.484043443867596
112	0xc0112417ada359f3	-4.285246575446297
113	0xc0038eb856c9f510	-2.444687536276099
114	0xc0094f3e4b097f8b	-3.1636930334352136
115	0xc00fe5f7d0f7379c	-3.987289078278037
116	0xc00a2541861eb697	-3.2681913831828058
117	0xc006353c5931daa8	-2.775994011720588
118	0xc009a160e8b753e5	-3.203798120588987
119	0xc0072465aa45476f	-2.892772035826901
120	0xc007b5e3cd1663d1	-2.963813402410303
121	0xc004f27ad60195b6	-2.618398353503575
122	0xc009b741956f7bcd	-3.2144805597922415
123	0xc0127f6e95fecb1d	-4.624445289303165
124	0xc0027ea86b02d576	-2.3118446693649117
125	0xc00e8dd11953034b	-3.819246480794765
126	0xc002b16bb38a7c40	-2.336631205238092
127	0xc00b3ed2e075f31f	-3.405675653075732
128	0xc0025ce12e798a68	-2.2953513747063887
129	0xc006ac9e525259f3	-2.8342863494283335
130	0xc00bf7eb63763a01	-3.4960544367270363
131	0xc00d4f90e9e9afc9	-3.663850619739581
132	0xc0049e5bdd0299df	-2.5773236528795986
133	0xc00a0144e7587bdd	-3.250619704616368
134	0xc00d10f76d0f4f4c	-3.633284427671162
135	0xc00abab988ccd876	-3.3411741912378217
136	0xc009564a6eba0bbd	-3.1671341562773407
137	0xc0086bfde11ec55c	-3.052730330230288
138	0xc006f3f05bdcd2d5	-2.869110791851521
139	0xc00ae472cfa6d623	-3.3615471098699046
140	0xc005d66305556c93	-2.7296810547537205
141	0xc007885d895519cc	-2.9415846566291517
142	0xc00c8515526575b6	-3.564982074471767
143	0xc00bfd000ca23647	-3.4985352503779583
144	0xc00bc6ced9ffd859	-3.4720742255404216
145	0xc00b5e7e625ce537	-3.421139496288244
146	0xc00dbbb39afab574	-3.716651163841272
147	0xc00555a507755d5d	-2.6668186743442406
148	0xc00af5ca04285e99	-3.3700142216510582
149	0xc0059278052d57f5	-2.6965179829085124
150	0xc00ee28a2062d0b3	-3.860615017905809
151	0xc00ee1ce82e0bca1	-3.8602571701845396
152	0xc009dbca4c2a3afe	-3.232319445647021
153	0xc001d352520f76f7	-2.2281843577355818
154	0xc009bd15dce4f49d	-3.217326856362503
155	0xc00bd2aed64ac495	-3.4778725377623894
156	0xc00692f2cbe94cd3	-2.821752160126928
157	0xc002de1ef271c163	-2.358457464310207
158	0xc00d67cfad4f2472	-3.6756890811707814
159	0xc005be76fb0193ef	-2.7180003747803236
160	0xc00dfffc1195b32c	-3.749992501622179
161	0xc00263054618853b	-2.2983499027474443
162	0xc0130a6f5298b9f0	-4.760190287181544
163	0xc00cc050bb8f632f	-3.5939039853223202
164	0xbffff74d20022721	-1.9978762865379809
165	0xc00b1f8358f4b348	-3.3903872441937075
166	0xc00d872704d7a26d	-3.6909923914247913
167	0xc00954c5881da4b1	-3.1663923868223596
168	0xc00ec9d99928ba5f	-3.848559567027493
169	0xc00f3e1da905054d	-3.9053300099045942
170	0xc006625fcad2cc37	-2.7980342717724187
171	0xc00be0f63e178ace	-3.4848446703848373
172	0xc0061c203e53ce2d	-2.7637333745313044
173	0xc00fa02a9c46339c	-3.9532062729762867
174	0xc009c11defc7716c	-3.219295380853671
175	0xc00588cfdea18d19	-2.6918027298976424
176	0xc00c95cb94beedcb	-3.573142206265151
177	0xbffa4d3cd7200078	-1.6438568499870865
178	0xc00a5ade6e8decb3	-3.2943695675908997
179	0xc0072e2c4d33db69	-2.897545436043789
180	0xc00cc0032347444a	-3.593755984890355
181	0xc00a718c857d4aba	-3.3054438046322874
182	0xc00a0a53b550987f	-3.2550424733372547
183	0xc003ed94af5c4f56	-2.4910062503858326
184	0xc00b31ccef32d63b	-3.399316662539403
185	0xc00abcf0ae48bf86	-3.3422559371901484
186	0xc00c30d7d8e04291	-3.5238491958082894
187	0xc0055325755bbdd1	-2.665598790037372
188	0xc0090fe1d4605926	-3.132754954519572
189	0xc002d9f34ed98aca	-2.3564211044443697
190	0xc00bffbf1a306e7c	-3.499876217463507
191	0xc00a372b58b7a81f	-3.2769381457374176
192	0xc0005f7628736d7f	-2.0466120872712845
193	0xc0093e11f6ebec8b	-3.1553077021358766
194	0xc009762f18636883	-3.1827070145928373
195	0xc0024dc11beafb35	-2.287965982540664
196	0xc00c2c484acb35f8	-3.52162226135874
197	0xc0027ea42c2c0ee2	-2.311836571783588
198	0xc003ddcf71a4d7b9	-2.4833058241301527
199	0xc00be159e2e91c6c	-3.485034725893959
200	0xc00afefd1587e568	-3.3745061571213917
201	0xc00244efc1faeb73	-2.2836604265880225
202	0xc0065436d671ee8a	-2.791120219566271
203	0xc00a4ee1602e4321	-3.288515807544528
204	0xc0086781cd26500f	-3.0505405452077023
205	0xc00580639295381c	-2.6876899196422652
206	0xc01112ef33a87340	-4.268490607410797
207	0xc008d31b8a5ab1b4	-3.1030798729827556
208	0xc004f19095466dd2	-2.617951551639387
209	0xc00808f1f22c2be0	-3.004367725346569
210	0xc0137376ee0a3029	-4.862758368846735
211	0xc0062dd156cd9287	-2.7723719388471326
212	0xc005b78667d011be	-2.714611826932212
213	0xc00e823768758cbf	-3.813582244956336
214	0xc00698c1c85a0e92	-2.8245883610232534
215	0xc009235fca805944	-3.1422725506228364
216	0xc006363548a831fe	-2.776468818314469
217	0xc00a19dfd671fa1c	-3.262633967736532
218	0xc0023ff928d6bbb9	-2.2812369528323555
219	0xc00b7612037bd683	-3.4326515457312907
220	0xc002f0701571cb68	-2.367401282820925
221	0xc010829b9ca751e0	-4.127546737396614
222	0xc0098475bf460c0b	-3.1896777098895703
223	0xc001e981217c93e8	-2.2390158287184825
224	0xc00b61b48e7cbac8	-3.4227076656164606
225	0xc008689525d24a2e	-3.051065726738009
226	0xc01043547bf6e2d5	-4.0657519692838
227	0xc0057e93d757878b	-2.6868054221712945
228	0xc00e143a3903d307	-3.7598766760150997
229	0xc0072773f222c42b	-2.89426411789511
230	0xc002f95ddc410d35	-2.3717610556938333
231	0xc006ea130f37dfdc	-2.864294165508893
232	0xc00e9b956fee9587	-3.8259686226544463
233	0xc005f528da384a39	-2.7447068260601353
234	0xc00c5aff49590c4b	-3.5444322328853892
235	0xc00c6c094a5c713f	-3.5527520951710865
236	0xc00785b396b157e8	-2.9402839444037348
237	0xc00cc8e2faaf61bf	-3.5980891785404476
238	0xc00215e93d5a55af	-2.2606987755959476
239	0xc0086ffcd02a4914	-3.054681421556902
240	0xc00e7cafa1bec85d	-3.8108818661067247
241	0xc00ebf6425777d8e	-3.843452732762393
242	0xc006235ac30f9406	-2.7672629584435553
243	0xc008bb2e4d72666f	-3.0913969088112974
244	0xc0102d0fbbf6aa91	-4.0440053338339945
245	0xc00906ab6b69e52d	-3.1282566444102913
246	0xc0083b7e7d2df1d6	-3.029049852337475
247	0xc00fe5a2e3453b57	-3.9871270900252216
248	0xc00255f4f40a03c5	-2.2919711175495388
249	0xc010bd3e25f3a229	-4.1848073892547655
250	0xc007dd3b37b2759d	-2.9830231047951217
251	0xc00806c2342b8e44	-3.003300101832595
252	0xc002bc750d1cd39c	-2.3420201324865513
253	0xc0071874653012d4	-2.886940756349171
254	0xc00fa55133bfaf85	-3.955721287047654
255	0xc0058397f594730b	-2.6892546831062467

lam_centers f8 [11759]
0	0x40bf843ae147ae14	8068.23
1	0x40bf84828f5c28f6	8068.51
2	0x40bf84a8f5c28f5c	8068.66
3	0x40bf84deb851eb85	8068.87
4	0x40bf853d70a3d70a	8069.24
5	0x40bf856666666666	8069.4
6	0x40bf8587ae147ae2	8069.530000000001
7	0x40bf860000000000	8070.0
8	0x40bf8675c28f5c29	8070.46
9	0x40bf86b851eb851f	8070.72
10	0x40bf874000000000	8071.25
11	0x40bf87570a3d70a4	8071.34
12	0x40bf87ab851eb852	8071.67
13	0x40bf880000000000	8072.0
14	0x40bf88547ae147ae	8072.33
15	0x40bf887ae147ae14	8072.48
16	0x40bf88bd70a3d70a	8072.74
17	0x40bf88e666666666	8072.9
18	0x40bf892e147ae148	8073.18
19	0x40bf898000000000	8073.5
20	0x40bf89ae147ae148	8073.68
21	0x40bf89fae147ae14	8073.98
22	0x40bf8a30a3d70a3f	8074.190000000001
23	0x40bf8a6147ae147b	8074.38
24	0x40bf8aca3d70a3d7	8074.79
25	0x40bf8b4000000000	8075.25
26	0x40bf8b68f5c28f5c	8075.41
27	0x40bf8b8a3d70a3d7	8075.54
28	0x40bf8c0000000000	8076.0
29	0x40bf8c8000000000	8076.5
30	0x40bf8d5eb851eb85	8077.37
31	0x40bf8d91eb851eb8	8077.57
32	0x40bf8df333333334	8077.950000000001
33	0x40bf8e6147ae147b	8078.38
34	0x40bf8e828f5c28f6	8078.51
35	0x40bf8ec7ae147ae2	8078.780000000001
36	0x40bf8f4a3d70a3d7	8079.29
37	0x40bf8f91eb851eb8	8079.57
38	0x40bf8fcf5c28f5c1	8079.809999999999
39	0x40bf9023d70a3d70	8080.139999999999
40	0x40bf90a3d70a3d70	8080.639999999999
41	0x40bf9130a3d70a3f	8081.190000000001
42	0x40bf91851eb851ec	8081.52
43	0x40bf91b5c28f5c29	8081.71
44	0x40bf922b851eb852	8082.17
45	0x40bf9268f5c28f5c	8082.41
46	0x40bf927d70a3d70a	8082.49
47	0x40bf92c51eb851ec	8082.77
48	0x40bf93028f5c28f6	8083.01
49	0x40bf93547ae147ae	8083.33
50	0x40bf937851eb851f	8083.47
51	0x40bf93bae147ae14	8083.73
52	0x40bf93fae147ae14	8083.98
53	0x40bf948f5c28f5c1	8084.559999999999
54	0x40bf94b333333334	8084.700000000001
55	0x40bf94deb851eb85	8084.87
56	0x40bf950a3d70a3d7	8085.04
57	0x40bf9563d70a3d70	8085.389999999999
58	0x40bf9611eb851eb8	8086.07
59	0x40bf96c000000000	8086.75
60	0x40bf971eb851eb85	8087.12
61	0x40bf976666666666	8087.4
62	0x40bf986147ae147b	8088.38
63	0x40bf98ee147ae148	8088.93
64	0x40bf9923d70a3d70	8089.139999999999
65	0x40bf99970a3d70a4	8089.59
66	0x40bf9a3333333334	8090.200000000001
67	0x40bf9a947ae147ae	8090.58
68	0x40bf9b170a3d70a4	8091.09
69	0x40bf9b947ae147ae	8091.58
70	0x40bf9bc51eb851ec	8091.77
71	0x40bf9bfd70a3d70a	8091.99
72	0x40bf9c1c28f5c290	8092.110000000001
73	0x40bf9c6666666666	8092.4
74	0x40bf9c8ccccccccd	8092.55
75	0x40bf9cab851eb852	8092.67
76	0x40bf9cc000000000	8092.75
77	0x40bf9ce666666666	8092.9
78	0x40bf9d2666666666	8093.15
79	0x40bf9d91eb851eb8	8093.57
80	0x40bf9e0ccccccccd	8094.05
81	0x40bf9e451eb851ec	8094.27
82	0x40bf9e8a3d70a3d7	8094.54
83	0x40bf9eb851eb851f	8094.72
84	0x40bf9edc28f5c290	8094.860000000001
85	0x40bf9efd70a3d70a	8094.99
86	0x40bf9f30a3d70a3f	8095.190000000001
87	0x40bf9f75c28f5c29	8095.46
88	0x40bf9fb0a3d70a3f	8095.690000000001
89	0x40bf9fe147ae147b	8095.88
90	0x40bfa02666666666	8096.15
91	0x40bfa0f851eb851f	8096.97
92	0x40bfa128f5c28f5c	8097.16
93	0x40bfa16666666666	8097.4
94	0x40bfa1c692c2ab55	8097.775676886396
95	0x40bfa2db0156849a	8098.855489165662
96	0x40bfa2d42688ed7b	8098.828712995509
97	0x40bfa38f07bd564e	8099.558711846896
98	0x40bfa3e84a14b7f3	8099.9073803853125
99	0x40bfa44e972b6022	8100.306994162531
100	0x40bfa44816d32d99	8100.281598280556
101	0x40bfa4ac6b619449	8100.673513506606
102	0x40bfa4bd3e3dc5a2	8100.73923097682
103	0x40bfa550060cf863	8101.312592325822
104	0x40bfa607f6a3b1a4	8102.031107169027
105	0x40bfa657803bdaa8	8102.341800442584
106	0x40bfa699990d2bd7	8102.599991629794
107	0x40bfa6d5fcf18da5	8102.835890862542
108	0x40bfa7098aa0cfb5	8103.037271547994
109	0x40bfa77757665757	8103.466177364658
110	0x40bfa7dacd48723f	8103.854694869892
111	0x40bfa83129a2031f	8104.192041517031
112	0x40bfa839a899309e	8104.225228857393
113	0x40bfa88334259ddc	8104.512514449158
114	0x40bfa8a5f77bb27e	8104.648307543828
115	0x40bfa916ad676e25	8105.088583435431
116	0x40bfa97ca000a1d6	8105.48681644393
117	0x40bfa9ad162bd989	8105.676119557008
118	0x40bfaa075911b475	8106.028702837521
119	0x40bfaa091b6fbac5	8106.035574896906
120	0x40bfab02c28a4681	8107.010780946935
121	0x40bfab33caafb5dc	8107.202311498546
122	0x40bfaba3626c7183	8107.638220575059
123	0x40bfabb591e23b2b	8107.70925725884
124	0x40bfac3ce28be71d	8108.237831825184
125	0x40bfac22a1df9617	8108.13528249182
126	0x40bfac74a7423941	8108.4556771650105
127	0x40bfacfff5fe65c8	8108.999847316598
128	0x40bfad39cf624d56	8109.225820678597
129	0x40bfad9f895992b3	8109.623189543071
130	0x40bfadc77781fc6c	8109.779167293669
131	0x40bfae49677a9170	8110.286735210902
132	0x40bfae83fe6f94bb	8110.5156011331665
133	0x40bfaec0f46cc67a	8110.753729628044
134	0x40bfaee726137427	8110.902924743516
135	0x40bfaf1bc7d408df	8111.108517887274
136	0x40bfaf7e0882a9d3	8111.492317358457
137	0x40bfafd12675188f	8111.816993063446
138	0x40bfb00b3817e2d4	8112.043824665907
139	0x40bfb03adb27fe2e	8112.229906558567
140	0x40bfb09e8de4774c	8112.619352606893
141	0x40bfb0e49092e044	8112.892831020119
142	0x40bfb124fa7097b7	8113.14444640831
143	0x40bfb14874ef7153	8113.283034291427
144	0x40bfb165011d91b8	8113.394548271252
145	0x40bfb1d25074d49a	8113.821540166764
146	0x40bfb220cc946cda	8114.1281216398
147	0x40bfb278dea3d7d8	8114.472147216984
148	0x40bfb2a9ac793da6	8114.662787988234
149	0x40bfb2cb925a90cd	8114.795201931335
150	0x40bfb302f66347c7	8115.011572079681
151	0x40bfb32c89b98fcc	8115.173976514441
152	0x40bfb36b65ea223c	8115.419523843153
153	0x40bfb3a235c6d968	8115.633633068159
154	0x40bfb492ef441130	8116.573963407704
155	0x40bfb4881bb6bca9	8116.531672879276
156	0x40bfb4c15951f832	8116.75526916799
157	0x40bfb50ea5bbc843	8117.057216392891
158	0x40bfb55ef3de0360	8117.370908618759
159	0x40bfb591126b2e47	8117.566687296675
160	0x40bfb5c64f631b9b	8117.774648851623
161	0x40bfb63f212670a7	8118.2465995812445
162	0x40bfb65554681fce	8118.333319194569
163	0x40bfb6c3dcbb1e6e	8118.765086836747
164	0x40bfb72399e110bc	8119.139066759668
165	0x40bfb7552ba8ee46	8119.332697446987
166	0x40bfb78a36aae1ce	8119.539896659973
167	0x40bfb7d4fc50c185	8119.831975028273
168	0x40bfb88c1ebbc029	8120.547343954481
169	0x40bfb883113201e0	8120.511981130083
170	0x40bfb8879cf6d1a0	8120.5297388326435
171	0x40bfb91d497c8dab	8121.114402565562
172	0x40bfb956f15e62ec	8121.339620494033
173	0x40bfb9adb1f5cf06	8121.678496707003
174	0x40bfb9e0c174a28a	8121.877951898272
175	0x40bfb9fb7287de2c	8121.982216350309
176	0x40bfba23eec78563	8122.140362234178
177	0x40bfb9ab8a295c1a	8121.670076928125
178	0x40bfba80358f808c	8122.500817269214
179	0x40bfbaf2d5ec8984	8122.948576720784
180	0x40bfbb4421b9144f	8123.266139571627
181	0x40bfbb6d989b952c	8123.428109859389
182	0x40bfbbd8350502e9	8123.844559014521
183	0x40bfbc068da37f43	8124.025598734445
184	0x40bfbc6315e601a8	8124.387052894024
185	0x40bfbcf6a0dd7184	8124.963392105306
186	0x40bfbd38e3111efb	8125.222214765609
187	0x40bfbd3f8552b7dd	8125.248128099335
188	0x40bfbdbbcfa980f7	8125.733637422548
189	0x40bfbe2d7f6d3831	8126.1777256262
190	0x40bfbe8960990389	8126.536630214084
191	0x40bfbeecfaa8f6ec	8126.925699768337
192	0x40bfbf36944c1bcb	8127.213200337205
193	0x40bfbf8016812524	8127.500343391006
194	0x40bfbff6bf4ebdd7	8127.963856622074
195	0x40bfc035971ef61c	8128.20933717259
196	0x40bfc0706084469f	8128.438972728006
197	0x40bfc0e8d36eefd5	8128.909476216843
198	0x40bfc10366743d5b	8129.013282074909
199	0x40bfc1661c074e8e	8129.398865181616
200	0x40bfc1d0f6e742ea	8129.816267446362
201	0x40bfc2328d01eda6	8130.197464104194
202	0x40bfc285b92ba151	8130.522356726536
203	0x40bfc348cc79b783	8131.284370047858
204	0x40bfc4631d94f2e7	8132.387170132925
205	0x40bfc571ba78f36f	8133.444251594002
206	0x40bfc56656a342e9	8133.399759486995
207	0x40bfc55faf10f14f	8133.373765047944
208	0x40bfc60c475c5753	8134.0479638779825
209	0x40bfc693aadfaeda	8134.576826076687
210	0x40bfc6fbb8b7b0eb	8134.983287316029
211	0x40bfc74b5cd591c9	8135.294385288326
212	0x40bfc785bd81c458	8135.522422895847
213	0x40bfc7ca9aae9363	8135.79142275904
214	0x40bfc86ef2065a7d	8136.433380505649
215	0x40bfc88d12a46318	8136.551065706437
216	0x40bfc9268470a331	8137.150458373872
217	0x40bfc9c46bef1ce7	8137.767271942669
218	0x40bfca8ee65e8acd	8138.558202656638
219	0x40bfcacbeb917ad8	8138.796563236705
220	0x40bfcb126ad2ad74	8139.071942489001
221	0x40bfcb5c1f0aee05	8139.359848673926
222	0x40bfcbabeaf95e29	8139.6715541701205
223	0x40bfcbf60184c526	8139.960960672504
224	0x40bfcc44fed0764d	8140.269513157732
225	0x40bfcc4d651757a4	8140.302323779008
226	0x40bfcd2f613d74d9	8141.185077515628
227	0x40bfcd8a537e6b57	8141.540336514669
228	0x40bfcdc125c47b89	8141.7544825364685
229	0x40bfce308880fa4e	8142.189582882986
230	0x40bfce8a33d0453f	8142.539853112131
231	0x40bfcecfe6ebdbeb	8142.8121173297795
232	0x40bfcf6914069f85	8143.41046182055
233	0x40bfcf8de764bae1	8143.554312034249
234	0x40bfd0051864a8c4	8144.019903460696
235	0x40bfd031931dfaf3	8144.193651078956
236	0x40bfd090e3c7aff0	8144.565975647405
237	0x40bfd08982b057ba	8144.537150403421
238	0x40bfd0dfe1c6764e	8144.874538806804
239	0x40bfd11e6b1664e3	8145.118821525221
240	0x40bfd1a6b7da4533	8145.651242868323
241	0x40bfd1c1cf260577	8145.757067085585
242	0x40bfd1c151d9e7f9	8145.755155200132
243	0x40bfd23d0fbb2c7e	8146.238521288264
244	0x40bfd28253e74016	8146.509092763086
245	0x40bfd289b6fe11e0	8146.537948493351
246	0x40bfd3557cf1e8b2	8147.333937758742
247	0x40bfd40c1157e1e5	8148.047139637613
248	0x40bfd44cfa864035	8148.300697699237
249	0x40bfd4a85dcf36e8	8148.657681418328
250	0x40bfd4a15e897b8a	8148.630348770772
251	0x40bfd568916100ba	8149.408468306234
252	0x40bfd5cc4422b1b8	8149.7979146655925
253	0x40bfd63dbc248054	8150.24115207799
254	0x40bfd6859d590b4d	8150.521932187327
255	0x40bfd6fa463219b4	8150.977633601451

a_coeff f8 []
0	0x3ff0000000000000	1.0

b_coeff f8 []
0	0x0000000000000000	0.0

c_coeff f8 []
0	0x0000000000000000	0.0

radial_velocity f8 []
0	0x40235b3e5ec11be0	9.678210221360075
