experiments/04_full_bandwidth_HPF/emulator_T4700g4p5_prom0p01_HPF_MAP.pt (torch, 291471 bytes, 7 tensors)

amplitudes f8 [9028]
00000000: 3f27 f7da 92e3 0ec0 7ab9 dc68 817c 13c0
00000010: cfd3 33cd 0a2a 1ac0 8419 7d96 bb09 10c0
00000020: 6fe4 2b4a dd3e 12c0 8ed4 321f 9864 12c0
00000030: ffdb c5e5 3892 04c0 8317 3215 3b01 14c0
00000040: 6151 80b2 b7eb 12c0 29dd df8c dcba 0fc0
00000050: 3a41 b04e 2a18 07c0 0a30 7cc0 0782 10c0
00000060: 3ff8 26c9 7ee4 0dc0 f876 8f5e eecc 13c0
00000070: 2d93 cde8 dfd6 11c0 9b1e 0986 50f9 18c0
00000080: 31b2 5556 5222 1ac0 f2cf 908a f298 04c0
00000090: f2a8 4c96 8a10 19c0 2b42 231a 0d9f 12c0
000000a0: 83e9 9406 a3e2 16c0 c2f2 e315 35eb 11c0
000000b0: 0a20 059c e159 0cc0 99fa 8439 795a 02c0
000000c0: 1640 8e94 aa4a 12c0 55fe 11e5 945d 12c0
000000d0: 78f9 8164 2a8e 18c0 600a cb4c 8911 1ac0
000000e0: ecbf b47f f850 14c0 e09e df1f c4aa 10c0
000000f0: d3df 40de f9e9 11c0 d340 8570 c5a3 18c0
00000100: fccb 7ffd d13c 19c0 1414 5b13 ac7e 13c0
00000110: 8f00 e169 154a 19c0 8fc7 de83 e397 14c0
00000120: 9035 faa5 6690 06c0 b3db a222 7716 11c0
00000130: 48be 02b7 70f5 10c0 b427 25da 1918 10c0
00000140: c643 fddd ce55 13c0 3fcd 9ae4 ae2a 0bc0
00000150: df30 b64e afbd 15c0 a8da 1c5b 7dfb 18c0
00000160: ae15 7dd8 7dca 11c0 49eb 13ea 383a 11c0
00000170: 658e 78fb 4b16 10c0 c03c 78b8 745e 03c0
00000180: 8f97 65cd d1d2 10c0 018e e4ae 4c11 19c0
00000190: d378 d3fb 61e9 11c0 dfe5 4c97 70fd 0fc0
000001a0: c1ca eff2 e635 0ac0 068f 63ee 0025 18c0
000001b0: 98fa 4bd9 4901 15c0 d463 2650 8ee5 13c0
000001c0: 1901 a796 a242 15c0 0d10 59b0 394a 0cc0
000001d0: c6ef 547d f9d7 15c0 0555 2403 b37d 14c0
000001e0: 4571 fc0e 84ea 0ec0 9eb2 0088 5ed1 19c0
000001f0: 8b0b d447 035d 13c0 4b53 b1f5 465e 11c0
00000200: 8d33 4da5 c5d7 16c0 a2cc d58d f0c0 07c0
00000210: c8f0 b8da 29a8 10c0 1362 6011 fadf 11c0
00000220: 64ab 76f0 6eeb 10c0 2bc1 b176 69a4 09c0
00000230: cd0c e953 e582 19c0 bb14 1966 f807 09c0
00000240: 0dff b035 2949 1ac0 8171 7a8e 065f 16c0
00000250: f969 3973 e81e 13c0 8874 3163 ec11 0cc0
00000260: 43de 87c8 3047 15c0 5e80 59a3 2783 05c0
00000270: a1aa ae7e ea30 19c0 8859 e98e 59ad 11c0
00000280: 568b 7d85 2c5d 12c0 9c4a d800 d249 17c0
00000290: 1f31 9dcd 84f4 10c0 84cc 8db3 d220 02c0
000002a0: dc56 07ee 2772 0ec0 5eba 63c0 fec3 10c0
000002b0: 8c4d 0533 6663 12c0 3596 9d9d 59bc 12c0
000002c0: 823b 2d0d ee62 11c0 2abc 8e43 0ccf 1ac0
000002d0: ae3e 210d e388 11c0 c9ca c7b7 1046 1bc0
000002e0: 941d 0321 0052 11c0 bbff e422 bab3 17c0
000002f0: 4d23 0105 ec59 12c0 0be6 0951 6b29 0ec0
00000300: f117 0417 56f5 12c0 d643 e03c 4b85 10c0
00000310: 49f3 3e56 9e74 13c0 f0cb 4580 13ef 10c0
00000320: 6e87 eaba b432 12c0 c2a0 108e 190f 16c0
00000330: 72cb fa15 0ae1 0dc0 2554 1dff 8f82 12c0
00000340: d7cc 87db ba9b 13c0 3a34 b2c2 7259 0ec0
00000350: 26df 40ec fd70 1cc0 0d06 3f40 6083 12c0
00000360: 5791 2d8f 1c9b 0ec0 51ee 3fd4 edae 16c0
00000370: 54b2 89f5 529b 18c0 b31d d4fa be5e 18c0
00000380: 0276 25d0 7b90 19c0 8d23 6515 91dd 11c0
00000390: e929 24a7 68e0 0ec0 ef76 0c5c b9c9 10c0
000003a0: 79b7 cfce b951 12c0 0582 0baf ddca 19c0
000003b0: 3dda 5a55 1b3c 1ac0 1d00 4e18 f553 19c0
000003c0: 3450 9a7f b926 12c0 a75d 3ec5 9477 0bc0
000003d0: 0776 1e30 8aa0 15c0 a96b ecc8 d8a5 11c0
000003e0: 4f06 0082 6f03 11c0 56a5 9862 9ec8 11c0
000003f0: c35d 6858 fd6e 0ec0 09f4 47c9 3736 0dc0
00000400: fa4e 5539 aca7 16c0 a3b0 c0b9 58a6 12c0
00000410: ce89 cda5 e2fc 10c0 3c7a 406a dae7 10c0
00000420: cd92 69bb 67ac 05c0 b989 3625 86ec 14c0
00000430: a33b dbde 292a 12c0 dce3 6afe c912 16c0
00000440: 2f77 1f18 1d7a 0ec0 d16c 9c9a b880 1bc0
00000450: 32cf a71d 16fe 10c0 39e0 e5d7 6288 10c0
00000460: 9f56 0c8b 32ac 12c0 06ce c261 7619 18c0
00000470: 6371 c9b1 300f 15c0 6283 1ac3 4060 15c0
00000480: 9bc9 eeb4 4304 1bc0 d921 e450 d724 12c0
00000490: ab72 6314 452d 12c0 82a4 ed02 35aa 10c0
000004a0: 4df5 965a b786 14c0 d077 ce6c cad9 1bc0
000004b0: 983e 4467 6811 0cc0 4f3f 91d4 c18d 1cc0
000004c0: e8ed 0a6f 41e7 10c0 81f7 a6aa 17f7 0bc0
000004d0: 025a 3929 272e 13c0 c1b2 be2e 91b9 10c0
000004e0: 965f fa8a 87ac 10c0 6011 50aa e5ac 15c0
000004f0: 4650 8529 e696 12c0 55c4 4179 64d6 0ec0
00000500: ae3a a00f 9a56 16c0 3a3e b2e6 2220 12c0
00000510: 9516 7327 ad96 0bc0 97e5 ff53 70bc 0dc0
00000520: 1fc4 738c 5049 1cc0 578a c0a7 e61f 0dc0
00000530: f89c 2acd a40e 13c0 f0d8 419e cf8f 0fc0
00000540: a05f b0ff 18a6 14c0 b6d8 c710 727e 14c0
00000550: 0434 2202 cf77 12c0 1515 a2b8 1e84 10c0
00000560: 49af 8866 fb12 1bc0 a564 2416 1d1a 1dc0
00000570: 4e8a d23d d24e 0dc0 d0cb 0586 b074 13c0
00000580: 9fba 72ec a24f 11c0 5a2c cced 742a 1ac0
00000590: fda8 5aba 06a0 11c0 47ac bf0e 604c 0ec0
000005a0: b1f7 c07f 983b 1bc0 c26a 8fc5 788c 11c0
000005b0: 0948 f54a 2098 19c0 cace f761 5af5 0dc0
000005c0: 5058 ac8b 7d31 10c0 ef12 9f0b f862 15c0
000005d0: 4573 7f5e 9b4b 13c0 da4e 958a 6a34 11c0
000005e0: 073d d9da 1242 10c0 7b38 8bac deca 0ec0
000005f0: b7fa e9b1 f302 1ac0 fac7 796d 94c9 1bc0
00000600: c1d2 14de 944d 0fc0 a21c 41cd 1fdc 16c0
00000610: 0f8c 724c 2bd6 0ec0 72a0 e2aa f4b1 10c0
00000620: 508a 6554 f5ba 19c0 8cd6 a264 c56d 12c0
00000630: 9d97 b4ed 5ec3 0fc0 e715 3d43 a173 14c0
00000640: 8f40 dbf0 9ec7 11c0 fa07 9955 7c44 16c0
00000650: 51cb 705f 1393 17c0 d063 c461 2a26 10c0
00000660: 947c d540 d339 1cc0 9bfc 2446 dd95 11c0
00000670: c7f5 670d d3a6 11c0 d1ca 33da c6b7 0fc0
00000680: 9ab0 683d d0d2 09c0 0618 3be0 bb67 10c0
00000690: 46c7 dce8 a7b1 17c0 b208 c744 5da4 11c0
000006a0: 08b2 9af8 5718 13c0 b7c9 7fa7 4638 11c0
000006b0: 406e 2748 ad39 13c0 dce2 9faa 6b62 12c0
000006c0: 064f 170e bc83 19c0 34d4 85a1 7c85 11c0
000006d0: d5db 5fad 6f24 12c0 54e5 1d03 3811 14c0
000006e0: d71a 2108 5946 19c0 5567 f72c 5ad9 14c0
000006f0: b305 d6ba d996 09c0 03d9 1583 0e07 10c0
00000700: 5860 8438 a45a 1ac0 6948 b7f9 d2a1 18c0
00000710: 76be 23a4 6769 11c0 dc1a 1395 d422 12c0
00000720: dc23 486c c1a0 12c0 e3f5 f776 675b 12c0
00000730: d233 7cbb e3f5 12c0 24cc ba1a f714 12c0
00000740: a4d1 111d 104e 18c0 611b d75f cb0d 1cc0
00000750: 01c9 47d3 eb79 08c0 6ece 8d1c 6c1a 10c0
00000760: a10a 609c dd38 12c0 2b60 4f43 8f5a 15c0
00000770: 3efb 7fe6 4191 06c0 dccb 63c2 5cd1 14c0
00000780: a200 4fb0 0a39 12c0 d267 a37e 14c8 19c0
00000790: 8129 f9d3 7477 12c0 3581 e892 3af9 11c0
000007a0: 3563 098a c123 17c0 c41b 4749 64df 1ac0
000007b0: c415 cf27 fb48 13c0 f06e beee 406b 11c0
000007c0: 7e11 6807 29b0 1bc0 815f be96 bde0 10c0
000007d0: c8da 8966 0db6 0fc0 a7a3 f307 ebe9 1ac0
000007e0: 7471 e42d acf9 0ec0 90ac bdae 6bdd 16c0
000007f0: 4c3d 6434 d18c 1bc0 913f 28f3 2da0 17c0
-3.8611199480700686 -4.871587408515888 -6.541056829727451 -4.00950465334461 -4.561391028336501 -4.598236548879084 -2.5713975859648595 -5.001201945478786
-4.730192936975386 -3.9662409787957995 -2.8867994449175542 -4.126982696132481 -3.7365699496286022 -4.950128057009117 -4.459838521525666 -6.243471235567678
-6.533517216663811 -2.5746813607638552 -6.266153667859031 -4.655323418046957 -5.721325018729092 -4.479694692647799 -3.5438873471321175 -2.2941765302378596
-4.572916337187072 -4.5913883011085845 -6.1388335899667865 -6.5171253203321555 -5.079072947890364 -4.166763780616492 -4.478492233953108 -6.15993285954774
-6.309394799161051 -4.873703291353213 -6.322347311361354 -5.148328838798888 -2.8205082861883923 -4.271938840093685 -4.239687785665929 -4.023536118047492
-4.833796948035291 -3.395841394399809 -5.435239057416964 -6.245595382343403 -4.447745688089908 -4.306857736078038 -4.021774224503678 -2.421121064347602
-4.2058784573799946 -6.26689408559787 -4.477912840635514 -3.9987499065725696 -3.2763194064549173 -6.036136364771442 -5.251258273374923 -4.974175693839204
-5.315073350852139 -3.536242845266321 -5.4609126647082515 -5.1227531901288375 -3.864509694174702 -6.454462170641504 -4.84083282691689 -4.342067564914781
-5.710714896046636 -2.969208820426119 -4.164222161805988 -4.4687273707463815 -4.229915387385379 -3.2052792809482944 -6.377827941035503 -3.128891751900111
-6.571446265151974 -5.592798448775626 -4.780183601741094 -3.5087516545741586 -5.3195220311095595 -2.6890404473961516 -6.297769526873396 -4.419286950104272
-4.590990148341765 -5.8220901615156 -4.238787853926879 -2.2660268809937083 -3.8057402225484633 -4.191401487433351 -4.597069546888985 -4.683935606711704
-4.3466112192971895 -6.702195220553259 -4.383678631929497 -6.818423148698181 -4.330078616919668 -5.92551474116038 -4.587814405626728 -3.7702242213388266
-4.7395862194298255 -4.130169821918534 -4.863885257332023 -4.233472828159378 -4.54951755577518 -5.514745921864405 -3.7348825184976073 -4.627502428212243
-4.902079992450317 -3.7936759195931957 -7.110343638858273 -4.628296855780275 -3.8257380662709397 -5.670829121019396 -6.15168365147527 -6.092525405117544
-6.3910973093857155 -4.466373762414958 -3.8595746095572747 -4.196996153126505 -4.579810363224049 -6.448111281468759 -6.5586980187131845 -6.33198965049817
-4.537816995423828 -3.4333892259271184 -5.40677714525146 -4.411959781103101 -4.253355056048874 -4.445916691366923 -3.804194155392652 -3.65147359133562
-5.663742919761484 -4.662447836290229 -4.246958342237532 -4.226419124780076 -2.709182228240343 -5.230980473951086 -4.541175348406713 -5.518348670267155
-3.8096258053400542 -6.875704208180836 -4.2481312402413085 -4.133189557462225 -4.6681615568428745 -6.02486565352911 -5.264834192199802 -5.343997047894705
-6.754164530825075 -4.535977615284048 -4.544208830423183 -4.166217847590021 -5.131558814491041 -6.9626862526910855 -3.5084999149037905 -7.138434716572944
-4.225835547487328 -3.49565060922663 -4.79507126247927 -4.18121789015703 -4.168485805064753 -5.418844853531795 -4.647362374078574 -3.854683825797603
-5.584572071222892 -4.531383137349218 -3.4485724527356276 -3.7170111238926427 -7.071596331182291 -3.6405766587861694 -4.76430054257002 -3.9452202190251384
-5.16220473779677 -5.123482000539459 -4.617000611627194 -4.129023442166063 -6.768537141888211 -7.275501581164609 -3.663486941325835 -4.86395463381173
-4.327769941809179 -6.541461673342463 -4.406275665076689 -3.7872925903552956 -6.808198925164036 -4.3871794575486 -6.398560687275684 -3.7448012975454263
-4.048330480951407 -5.346649343093971 -4.823834873703906 -4.301187672961271 -4.06452505064886 -3.8490575294482006 -6.502882747560469 -6.946855269010479
-3.9128815984825853 -5.714965064143287 -3.854574773069096 -4.173784895021628 -6.432576483438041 -4.607198307455871 -3.9703959055650118 -5.112919855693213
-4.444942248708812 -5.566880547967225 -5.893628588923847 -4.037271049129188 -7.056469929723921 -4.396351905829898 -4.412914475889415 -3.96473474951322
-3.227936248547917 -4.101302627188494 -5.923492086863751 -4.410512041709966 -4.773773083154545 -4.304957024740751 -4.806325080305726 -4.596113840111425
-6.378647060558938 -4.380358241837758 -4.535582264877083 -5.016815231990524 -6.318699004192886 -5.212258055305786 -3.198657474190179 -4.006891296585539
-6.588517077521907 -6.158031369983385 -4.352934422189369 -4.534014062205383 -4.65698785009678 -4.589261874088581 -4.740126542525973 -4.5204738785278415
-6.076233343327122 -7.013471124176108 -3.0595318323404403 -4.025803037791418 -4.5555328782672015 -5.338437129707056 -2.8209264762694195 -5.20445541128262
-4.5557048366755755 -6.445390681003078 -4.616656601030969 -4.493387504044496 -5.784917980978936 -6.718155999150387 -4.821270582212893 -4.354739885686044
-6.922031512953593 -4.219473224038553 -3.9638927470035448 -6.728435634847222 -3.871910437139542 -5.716231088949954 -6.887516802423601 -5.906425284701883

sigma_widths f8 [9028]
00000000: 8fa5 2374 1d48 0ac0 10bb be56 d57c 0dc0
00000010: 2853 530a 4940 09c0 77eb ebef 827e 07c0
00000020: 825e c4e1 29d9 0ac0 c3d1 097f 3031 09c0
00000030: 38bb 00a4 3c82 0ac0 599f 5f8a e7e7 09c0
00000040: 00a2 3633 45b3 09c0 f734 be6c c9b8 0bc0
00000050: 308b 81d8 9411 0dc0 7fa5 26f5 4299 0dc0
00000060: 427f a01b 2d56 02c0 3633 6506 4aa5 0ec0
00000070: f9ea a922 840d 0bc0 dd76 f736 78a7 0bc0
00000080: ff6f 9156 cbfc 0cc0 b56b 9191 cc31 09c0
00000090: c44a 4dd1 4d89 0dc0 bba5 10ab b50b 0bc0
000000a0: 1f02 899e 19e8 0bc0 037f 3cb2 7566 09c0
000000b0: 2c57 07a6 29d1 0ac0 0120 e241 33fe 07c0
000000c0: ce0e 43e0 b893 0dc0 4e94 2704 4864 09c0
000000d0: fdbb 76b7 a616 0cc0 3423 dd6f 95c4 0ac0
000000e0: 3f93 1a22 81c2 0ac0 a403 4506 6061 0bc0
000000f0: 5354 1148 4802 07c0 c1dd 4838 e69f 0cc0
00000100: 4baa e02e 3705 0ec0 db9b 0c03 0245 0bc0
00000110: 693d b071 b114 0bc0 9780 52b4 f185 0ec0
00000120: 64ba f3a9 a997 0ac0 85e2 619b 5c7d 0cc0
00000130: 40d1 0aa3 a847 0bc0 ddb9 2a53 c21e 0bc0
00000140: a51e ecb8 328e 0bc0 ae7d da2b 4da7 09c0
00000150: a9b5 71a3 901c 0ec0 708f 9974 92b5 0ac0
00000160: 80f0 3663 fe03 09c0 334c f3b5 2b5d 07c0
00000170: 1976 8bc9 813f 0cc0 6b4e 50ee b45f 06c0
00000180: 719a 4126 3640 0ac0 6790 195a f704 0cc0
00000190: 72c9 a661 33c3 0ac0 952b ae7a 6981 0ac0
000001a0: 8279 a78e 4e8a 09c0 c3fe 0433 0a8d 10c0
000001b0: d80e 1b3b c9c8 06c0 23e9 4312 402f 0dc0
000001c0: 6125 93ce 09a0 0dc0 edcc aaed f8e1 0bc0
000001d0: 1b73 8248 73c3 0ec0 ad77 6371 d3c9 0bc0
000001e0: ee06 8b7b 35f0 08c0 9829 32a3 4db2 0dc0
000001f0: 56ea 3585 3970 0bc0 9955 9ec4 01be 0bc0
00000200: 1947 8d00 6728 10c0 0c27 e47c 5891 0ac0
00000210: db02 ef99 046e 0dc0 d8fb dea2 bc4a 0ac0
00000220: 5c51 92f4 bbac 0ac0 946d db36 a863 0cc0
00000230: 236b dde5 49c6 0cc0 96f7 81d0 a393 09c0
00000240: e957 3f29 7e33 0ac0 a4b2 b755 7a95 0ec0
00000250: 51d2 8440 ea1f 0bc0 8528 0742 f23a 09c0
00000260: 7df7 9a69 44a4 10c0 9a39 9aa4 2a08 0ac0
00000270: 9af4 ee28 a69a 0bc0 d2a7 9ebf d2ba 08c0
00000280: c767 6b05 c6b6 0ac0 516f 9607 4147 10c0
00000290: 4ed6 93d5 0620 0fc0 a6b9 5f59 081b 01c0
000002a0: ffa0 2980 ec17 0cc0 43d9 d00b f4cc 0bc0
000002b0: da5a b5cd a5f7 0bc0 bfd4 d0da fc28 0ac0
000002c0: 1114 dc58 0642 0cc0 65b4 52d8 0008 0fc0
000002d0: c4a9 f9dd f24b 09c0 351b 01c5 5731 0ec0
000002e0: a4b6 a57f 755c 0ac0 df3c ac9b d59e 04c0
000002f0: d391 4e7f e566 0ac0 e55f 85a7 b659 0ac0
00000300: 2835 a2f7 a2c5 0ac0 918b a9fd fdca 09c0
00000310: 28f2 a8a9 013d 0ac0 c5a5 6987 c430 0bc0
00000320: 7cac 3c68 dd27 0ac0 41c4 60e0 6415 0cc0
00000330: 9279 20cf 8b82 05c0 6c09 1bc6 d0e2 09c0
00000340: 2ec1 f29c d5a6 09c0 5511 ac0f 51e1 09c0
00000350: ce8d 4f47 2efe 0bc0 fa8d 9282 d97b 09c0
00000360: d20c f62d ff13 0cc0 3f5a 5bf4 8468 09c0
00000370: c9cc 0ed8 04f1 0cc0 9a80 e6c3 169b 0bc0
00000380: ab90 40f1 03fb 0dc0 874a 4a6b 5a08 07c0
00000390: b041 66f6 a7a0 06c0 178f 99f8 859f 09c0
000003a0: b370 c0a9 db43 0bc0 2f79 11f6 2c4e 0cc0
000003b0: 6e68 4f21 72b1 0ec0 26e5 2ecc 1217 0cc0
000003c0: 5f21 9958 dc3f 09c0 0b9e 4951 9126 0bc0
000003d0: 113e 265e 06fd 09c0 632e 9f0f 1742 0ac0
000003e0: 4e1f 6362 3235 0ac0 0c75 0e7f f729 09c0
000003f0: e56e 4fc4 7ffa 09c0 f226 e1a5 e5ff 08c0
00000400: 83e3 8570 8fd7 0bc0 c062 0d8c 3b26 0ac0
00000410: 1738 8f60 e05b 0ac0 0a01 f169 8f7c 0ac0
00000420: 86a1 23d4 b240 0ac0 1951 79d3 fe8d 0dc0
00000430: d648 bea0 fe01 09c0 943b 990a f9ac 08c0
00000440: d323 2107 9650 0ac0 03a9 d927 da59 0ec0
00000450: c9f4 a84e 5a44 0ac0 2a4b e868 8022 0ac0
00000460: e270 7ba9 28ff 0ac0 5796 07b2 f2e3 0dc0
00000470: 6652 7ae7 184d 09c0 f7ae 1526 f803 0ac0
00000480: 0f06 0105 d3d4 0ec0 2f80 4cdc 6117 0ac0
00000490: 3913 faf1 fd28 0ac0 4431 6d97 a1a3 09c0
000004a0: 9d9a 3618 7ffd 09c0 0f00 af71 ee75 0bc0
000004b0: 68ba 07cc 04bf 06c0 e7e6 3ef3 0d19 0ec0
000004c0: 44ec 46e5 7f16 09c0 ea77 1019 b537 08c0
000004d0: 2ffc c293 78ab 01c0 0543 e4a5 491b 05c0
000004e0: 2544 d077 2d0d 09c0 30c1 6b2d 3e9a 0ac0
000004f0: a86f 759c 8565 0ac0 2802 cf4e 5f60 09c0
00000500: 17d4 3b2d e6b6 0cc0 629a af30 536c 0cc0
00000510: acb7 49b4 f27d 09c0 2047 36b3 c293 08c0
00000520: e391 d332 9d44 0fc0 f5c4 71aa 5487 05c0
00000530: 4846 86c7 430b 0ac0 70a2 2d8f b283 0dc0
00000540: 1dbe 1993 1cff 0bc0 0a47 911e d499 09c0
00000550: bb89 6a36 a5c2 09c0 8424 c59b 5c91 09c0
00000560: 8126 be2c 8fb3 0dc0 3445 bf44 ee3a 0ec0
00000570: 0f17 2856 9b6c 07c0 33d9 9729 c16e 07c0
00000580: 79f8 dbfa 7d67 0ac0 3474 b99e f4c9 0dc0
00000590: 428f 67d6 d51f 0ac0 c328 a506 f691 0ac0
000005a0: 5ee5 f36b fa70 0ec0 2101 4988 9f90 09c0
000005b0: 5adb 50a4 894e 0bc0 0e88 41f4 1867 09c0
000005c0: 3c88 b875 0503 0ac0 7b17 9b36 fa2c 0ac0
000005d0: 89e0 4c53 4699 06c0 b69c 7e73 bf93 09c0
000005e0: fbed 958e 9824 0ac0 c486 0c30 17f6 09c0
000005f0: 7165 5d98 43b5 0ac0 47d1 e7b1 7097 0bc0
00000600: 90a3 6930 43f8 0cc0 0c52 c75d 2fca 0cc0
00000610: 548b d668 c136 0cc0 dfab ff87 332c 0ac0
00000620: aade e16e 7476 0cc0 f9ee 4368 e4cd 09c0
00000630: aebc 3b24 808f 09c0 410d b33f bf32 0ac0
00000640: df86 f740 95c6 0ac0 3adf d06d aa05 0cc0
00000650: bab5 c309 fef7 0cc0 29b8 e2bd 5848 09c0
00000660: 94c0 9fbf 3753 0dc0 396e f272 701f 0ac0
00000670: 7ea2 7ee7 7d03 0cc0 88f3 c011 fa15 0bc0
00000680: 6e46 f57b c683 08c0 db5e 18ed 755e 0ac0
00000690: 8b67 7a2b 3342 0dc0 14b8 6bea 7054 09c0
000006a0: cac5 8eec 8e9c 0ac0 ad9b 6860 8e62 0ac0
000006b0: 134f 7dce e1f3 07c0 2ec3 e4d6 bd70 0ac0
000006c0: b495 e719 b969 10c0 44a5 3abe f792 0ac0
000006d0: 6422 daad cd26 0ac0 cf3d 27cd 32d2 0ac0
000006e0: 3edb 63a7 8754 0ec0 f658 bc5e 25b3 09c0
000006f0: 0c26 37e9 36d6 03c0 033f 195c 7f43 0ac0
00000700: 9094 68b9 3120 0ec0 7a72 6463 91ee 08c0
00000710: 6886 6605 9265 0bc0 afc9 6182 9f5f 06c0
00000720: 5d31 2f65 4957 0ac0 b534 7213 6cf2 08c0
00000730: 5f8a cca5 c978 0bc0 32d6 026a 114d 0ac0
00000740: 2298 5f60 2346 0bc0 7e72 8181 d41a 0ec0
00000750: edd4 eebd 9408 0bc0 d082 4ea9 9961 09c0
00000760: 3488 70cd dabe 0ac0 81d5 4ac2 3164 0bc0
00000770: c187 8fcc d048 04c0 6dbf 57db 351e 0dc0
00000780: c8a6 6bd8 6bbc 0bc0 c1ca e480 62be 0bc0
00000790: 1336 bcbb 3ca1 07c0 889b 093e 72b6 0ac0
000007a0: 05aa 89c3 bf51 0cc0 8df0 2996 9e10 0dc0
000007b0: e208 7e6a 296e 0ac0 8475 f54a bc5d 0ac0
000007c0: bea2 887d 11a6 0dc0 33ff cbee 4343 0ac0
000007d0: 3375 473e f17a 0ac0 0829 96d2 ba64 0fc0
000007e0: b8b0 81a1 f152 0ac0 3783 b031 9269 0ac0
000007f0: 27c7 e239 ecb2 0cc0 2e21 86ac 0bf1 0bc0
-3.2852124284151567 -3.6859537865597147 -3.156389313381073 -2.9367731803771977 -3.3560369146396747 -3.1490182804938924 -3.313592225334471 -3.2382345972472817
-3.2125343323752986 -3.465227937273649 -3.633584681943283 -3.699834742776772 -2.292078224025233 -3.8307075976976206 -3.381599684534532 -3.456772260119449
-3.62343471175518 -3.1493159649375806 -3.692042956515566 -3.380717598386324 -3.4883301148950205 -3.1750291752540547 -3.3521302195539615 -2.9991212031491163
-3.697129966780131 -3.1739654850557946 -3.51106017428492 -3.345988153396684 -3.3449728645668126 -3.4225464334308118 -2.876114428547717 -3.5780758282887466
-3.7525466596901302 -3.408695243665972 -3.385104072752871 -3.8154024207761483 -3.324054076910487 -3.561211790013035 -3.409989618079777 -3.3900190827764463
-3.4444326827104583 -3.2066901613286154 -3.7639477509571475 -3.338658247886933 -3.126950049509162 -2.9204935278771926 -3.5310092683491914 -2.79673181707931
-3.2813532818575415 -3.502424911408571 -3.345312846090729 -3.3131894668962993 -3.1925326485499577 -4.137734219722634 -2.8480400674469415 -3.648071425149412
-3.703143705239811 -3.4853380744694875 -3.8454347290811604 -3.4735478266220157 -3.1172895099451727 -3.712062144249284 -3.4297972113684336 -3.4677768097705663
-4.039455422041805 -3.320969558441794 -3.6787197137895027 -3.286492607526707 -3.3343428713944103 -3.548660687037861 -3.5968206365772786 -3.197089795080454
-3.2751429769950744 -3.822987241428864 -3.390583519032852 -3.1537823828157934 -4.16041722305624 -3.2539875850263345 -3.4505122373507904 -3.091222283391269
-3.339244882908108 -4.0695840058868535 -3.8906380353680907 -2.1381995184267053 -3.5116815579132203 -3.4750748561010893 -3.4959217139215584 -3.270013532159822
-3.5322386686480134 -3.8789078617324315 -3.1620843259636064 -3.774093188377629 -3.2951459858366707 -2.5775558626115607 -3.300242418847327 -3.293805416829843
-3.3465022417427868 -3.224117261635407 -3.279788327663727 -3.39881234923516 -3.2694652694240727 -3.510446312859614 -2.688743227175288 -3.2357497670174578
-3.206462122114451 -3.235017893255796 -3.4991117068436557 -3.185473461244098 -3.509764060088494 -3.1760348406199053 -3.617685020400675 -3.4507270149916396
-3.7475661132649143 -2.8790787107512332 -2.828445363040565 -3.2028922483313056 -3.4081338178494547 -3.5381716941912127 -3.836643467174375 -3.5112663223086598
-3.156181995556991 -3.393831858691333 -3.2485473018093747 -3.2822705479100462 -3.2759750067233773 -3.145491593006801 -3.247314008401974 -3.124949737485502
-3.4802540579661936 -3.268668264540196 -3.2948615592677117 -3.310820415179596 -3.2815910886167243 -3.6943336984060235 -3.125973945433638 -3.0844593837750356
-3.289348655413485 -3.793873130159342 -3.283375372439512 -3.266846484746016 -3.374589275436038 -3.7363027485433054 -3.1626451572613403 -3.251938149964072
-3.853918112844219 -3.261417122921578 -3.2700156120721684 -3.2048980550954713 -3.248777569929486 -3.432583702233394 -2.8432708682878918 -3.7622336391039997
-3.1359861290234523 -3.027200885596348 -2.2087260764960983 -2.6383240661892864 -3.1314343796189115 -3.325313906527434 -3.299571249326579 -3.172056785290142
-3.5893062147029116 -3.5528930476751137 -3.1864980778691088 -3.0721487046183853 -3.908502957421875 -2.691079455944982 -3.2555003726818406 -3.6893054185678054
-3.4995662204962756 -3.200111616905706 -3.2200416804564305 -3.195977417901817 -3.7126754279641436 -3.778774773680789 -2.928030655954792 -2.9290793656793084
-3.3005332563762377 -3.72361110690556 -3.265544581447018 -3.3212700385239216 -3.805165141468634 -3.1956167838362863 -3.413348468511157 -3.1753405649660698
-3.2514752575816868 -3.2719616190033185 -2.8248411662899042 -3.1971425078405344 -3.2678691043381582 -3.2451614145109904 -3.338507833814838 -3.4489454172964176
-3.621221903060764 -3.5987231565907276 -3.5267360868905744 -3.2715826630496703 -3.5578392660789477 -3.225533308575788 -3.195068629334478 -3.2747788406865372
-3.3469643664874265 -3.502766473709838 -3.6210900080538666 -3.1603255114378226 -3.6656336756351013 -3.265351198218721 -3.5017049870987753 -3.385730875683695
-3.0643434223391557 -3.2961233637869163 -3.657324161217678 -3.166230994617772 -3.32644448099811 -3.2981231243060933 -2.9940830356589543 -3.305049589973712
-4.103245167503179 -3.321761594929429 -3.2689469892687146 -3.352635958442739 -3.7912743642185935 -3.212473621485624 -2.479596921916487 -3.2829577632145415
-3.765719841484106 -3.1164882435826344 -3.4245949193871645 -2.796690958604095 -3.2926204590823276 -3.118370201037204 -3.433978362373906 -3.28763087102086
-3.409247162740045 -3.7631006353024636 -3.3791899527083076 -3.1726563670239116 -3.343190770146089 -3.4239230326735997 -2.535554502611348 -3.6397511612084856
-3.4670025737621906 -3.467961317999056 -2.953729120904208 -3.339085087459754 -3.5399165417086373 -3.6331149798916784 -3.303789932223581 -3.2957692962797314
-3.706088047725955 -3.282844415283671 -3.310030447536201 -3.9241844608378678 -3.2904999368384686 -3.3015483743660314 -3.5873646280605445 -3.492698047488509

gamma_widths f8 [9028]
00000000: 522c 196d 2ae8 08c0 d341 b44f e21c 0cc0
00000010: ead9 4803 56e0 07c0 3a72 e1e8 8f1e 06c0
00000020: 45e5 b9da 3679 09c0 8658 ff77 3dd1 07c0
00000030: fb41 f69c 4922 09c0 1c26 5583 f487 08c0
00000040: c228 2c2c 5253 08c0 b9bb b365 d658 0ac0
00000050: f311 77d1 a1b1 0bc0 422c 1cee 4f39 0cc0
00000060: 0506 9614 3af6 00c0 f9b9 5aff 5645 0dc0
00000070: bc71 9f1b 91ad 09c0 a0fd ec2f 8547 0ac0
00000080: c2f6 864f d89c 0bc0 78f2 868a d9d1 07c0
00000090: 87d1 42ca 5a29 0cc0 7e2c 06a4 c2ab 09c0
000000a0: e188 7e97 2688 0ac0 c605 32ab 8206 08c0
000000b0: efdd fc9e 3671 09c0 c4a6 d73a 409e 06c0
000000c0: 9195 38d9 c533 0cc0 111b 1dfd 5404 08c0
000000d0: bf42 6cb0 b3b6 0ac0 f7a9 d268 a264 09c0
000000e0: 021a 101b 8e62 09c0 678a 3aff 6c01 0ac0
000000f0: 16db 0641 55a2 05c0 8464 3e31 f33f 0bc0
00000100: 0e31 d627 44a5 0cc0 9e22 02fc 0ee5 09c0
00000110: 2cc4 a56a beb4 09c0 5a07 48ad fe25 0dc0
00000120: 2741 e9a2 b637 09c0 4769 5794 691d 0bc0
00000130: 0358 009c b5e7 09c0 9f40 204c cfbe 09c0
00000140: 68a5 e1b1 3f2e 0ac0 7104 d024 5a47 08c0
00000150: 6c3c 679c 9dbc 0cc0 3316 8f6d 9f55 09c0
00000160: 4377 2c5c 0ba4 07c0 f5d2 e8ae 38fd 05c0
00000170: dcfc 80c2 8edf 0ac0 2ed5 45e7 c1ff 04c0
00000180: 3421 371f 43e0 08c0 2a17 0f53 04a5 0ac0
00000190: 3550 9c5a 4063 09c0 58b2 a373 7621 09c0
000001a0: 4500 9d87 5b2a 08c0 4884 ff5e 21ba 0fc0
000001b0: 9b95 1034 d668 05c0 e66f 390b 4dcf 0bc0
000001c0: 23ac 88c7 1640 0cc0 af53 a0e6 0582 0ac0
000001d0: def9 7741 8063 0dc0 be1d 5580 936b 0ac0
000001e0: ef20 a5b7 05b5 07c0 7861 e9d7 0b53 0cc0
000001f0: e0f9 aaa3 3b20 0ac0 c743 d2db 6987 0ac0
00000200: 9508 467b 08f8 0ec0 b15a e772 7317 0ac0
00000210: 9e7a 9811 cf46 0cc0 d2ae dacd 6c31 09c0
00000220: fcc8 e533 09ad 09c0 503d 4f93 52f6 0bc0
00000230: 3c90 0b07 3d71 0bc0 72f2 3bbc 79d8 09c0
00000240: 69e1 40a7 a4ef 08c0 d238 9567 ce73 0dc0
00000250: 98ff ba8a 5a21 0bc0 4d58 57d6 2fe1 09c0
00000260: dde6 5b5a f1e5 09c0 6041 3354 c195 07c0
00000270: f1aa 8e1b 29cc 0ec0 dae9 768d fb18 0bc0
00000280: 920f 0b10 4a8c 0ac0 2f47 1479 8f34 0ac0
00000290: 031e 41fd c0d5 06c0 0e18 ba01 8ad4 04c0
000002a0: 978b d6c7 df49 04c0 927e 5924 ea1b 0cc0
000002b0: 2bc1 ed29 9cef 0dc0 1e22 4501 1123 0cc0
000002c0: e296 d517 6d61 07c0 8927 0921 47d7 0ac0
000002d0: 119c 1611 0638 0bc0 5d7e a09f b131 0ec0
000002e0: c5cf e009 9d72 0bc0 5350 30ed b18a 07c0
000002f0: 50ea 7400 ca57 0cc0 e380 2ac2 1e82 0ac0
00000300: 51b4 773a 5aed 0cc0 81d5 8403 ab91 0ac0
00000310: 7d2d 84ab 2b5c 0cc0 be0e 8ed1 215f 0bc0
00000320: 733a 472f d10f 0bc0 49b6 03db fd98 0dc0
00000330: 5629 9301 a37c 07c0 8c09 0622 105a 0cc0
00000340: 23c0 7737 eaf6 0cc0 97f9 9191 ba23 0bc0
00000350: 2f24 4ab0 5476 0ac0 2bdd 82d6 fda7 0ac0
00000360: 77f8 9c8e ab49 0cc0 a34a 91c2 f80f 0ec0
00000370: 9df2 34d4 583d 0cc0 be77 9e7d 6bfe 0bc0
00000380: a298 8666 914c 0dc0 262d 599b b82b 0cc0
00000390: bf22 c091 b565 08c0 0797 12cf 7d08 09c0
000003a0: 9ed2 4b87 962d 0bc0 c518 459e 71ec 07c0
000003b0: 6843 f8dc b1cf 0ac0 07c2 b235 ccaa 0bc0
000003c0: f3dc 2b84 a67f 0bc0 06d2 553e 39f8 0bc0
000003d0: 7726 6cc9 ff27 0dc0 2635 1b49 ee9f 0ac0
000003e0: 8abb 18f0 d7d6 0ac0 1d80 37c6 424d 0bc0
000003f0: 859f a066 f956 0bc0 74b2 61cf 7bb6 06c0
00000400: f42c 83d4 709e 0cc0 44dc d7da bd09 0cc0
00000410: a79f 5d98 f47a 09c0 b4e2 6f60 c4da 0cc0
00000420: ead7 e13d 5c3f 0ac0 36f4 4543 4a08 10c0
00000430: 520f b3ba f9e9 0bc0 1e7a 1eb4 a230 0cc0
00000440: 7f85 45d6 1f52 0ac0 4b72 4834 fc61 0dc0
00000450: 9719 3e7b 67fa 0ac0 8763 2621 ea45 07c0
00000460: 0db2 9155 35b6 0ac0 31d7 de8e b352 0bc0
00000470: 5466 c518 d7ad 0bc0 41f1 d429 df23 0cc0
00000480: a14f 10f1 b636 0ec0 317b 075b e1dd 0bc0
00000490: d1c5 7e19 2928 0bc0 4340 ec72 1cdf 09c0
000004a0: ebdb 46cd 65e1 09c0 6cbe a604 4821 0ac0
000004b0: 0d83 3771 f078 07c0 0030 5da3 0edf 0dc0
000004c0: 5c8a 8a6c 191b 0bc0 71b1 be0e 5927 09c0
000004d0: abd0 9bbd 2fa6 0ac0 e6c0 556c d6b8 07c0
000004e0: 1e20 4874 821f 0bc0 b485 66db 9ae3 0dc0
000004f0: 03ed b936 0736 0bc0 2f4b 8981 1135 0ac0
00000500: 7138 3931 4d12 09c0 22fa 00a4 8c68 0cc0
00000510: 85d6 f1b5 9061 0ac0 caf4 70a0 d4a0 09c0
00000520: 51cc 086e c731 0ec0 d69e 4849 7c70 0dc0
00000530: 6dd6 4c4d 3de2 06c0 0d43 214d 65ce 0ec0
00000540: 3a5a 7f12 03ef 0ec0 bc0f b6ce 17a1 0cc0
00000550: eacd 394e 28aa 0bc0 dee9 7163 bace 0ac0
00000560: 4eb1 98b8 7295 0dc0 b70a 26db 2393 0dc0
00000570: da77 6e73 aa42 09c0 dd48 51f4 fb2e 0bc0
00000580: 8cea b473 f2ed 0bc0 5071 eddb 5f67 0fc0
00000590: 3a25 0bd7 ed8d 09c0 2cf5 8669 ddd2 09c0
000005a0: 7e68 a542 b307 0ec0 3dd9 9bc6 aa28 0bc0
000005b0: 03a9 ced5 db06 0cc0 0a6e 24d7 0455 0ac0
000005c0: 5698 da92 b327 0bc0 3935 c9be af64 0cc0
000005d0: 85ad f904 ff05 0ac0 14da b134 ae1e 09c0
000005e0: 8244 c7b4 557a 0ac0 614d cd31 4de0 0ac0
000005f0: bdca 959b 929e 0bc0 42e7 796c 7119 0ac0
00000600: a2ba 42f1 c822 07c0 1892 fd5b 6440 10c0
00000610: 61f3 d7f6 8769 0cc0 1a85 4458 34b6 0bc0
00000620: e971 48df fedb 0cc0 68ea 3008 4467 0bc0
00000630: a61c 9eaf 7a9f 0ac0 e833 daea 59b4 0dc0
00000640: 5adc ff63 fd3b 0ac0 53c6 be43 eefc 0cc0
00000650: fedf b494 2dad 0fc0 2c37 0afb 080c 0bc0
00000660: d5f5 9969 ff42 0ec0 35f8 3fec ec07 0cc0
00000670: 8053 56c6 26f2 0dc0 af66 d157 8984 0dc0
00000680: 0596 3deb 677a 08c0 79f9 6aad fad3 0ac0
00000690: c47c 5ac0 d00a 10c0 cd8b b724 04c5 09c0
000006a0: 163f 2ee5 b80a 0bc0 62d1 dd2a 731b 0bc0
000006b0: 503f 2c9c 9ee5 09c0 0359 2028 495e 0bc0
000006c0: 52d8 7791 b9db 0bc0 1873 2440 1544 0bc0
000006d0: 98af 87f0 a00c 0cc0 08e1 7087 5400 0cc0
000006e0: c4e5 1884 c28e 0ec0 a01b 5fa4 3d06 0cc0
000006f0: ee6b 591a 9f7d 05c0 0b84 76a4 723d 0ac0
00000700: 2bab cc48 699e 0cc0 94f9 0305 8003 0ac0
00000710: 768f d705 5d98 08c0 20e6 485c 8808 08c0
00000720: 0be9 18c6 a526 0cc0 6e29 0c03 f006 0bc0
00000730: b7c5 f2a7 7be4 0dc0 4d7b 4726 5495 0bc0
00000740: e374 de0d c327 0dc0 dd02 413f 556e 0ec0
00000750: 1b97 6862 55b1 0bc0 409e b49e 6397 0bc0
00000760: f415 c715 9a70 0dc0 104e fc4c 8aa7 10c0
00000770: f11f 8810 b1fa 03c0 ddd1 4df7 5c70 10c0
00000780: 6668 1ea2 98c1 0dc0 8ec0 0b13 4c33 0ac0
00000790: e899 876c cb98 08c0 545c e6e4 e226 0ac0
000007a0: af39 5cf2 7ff5 0cc0 1634 c143 b801 0cc0
000007b0: 3b9b 8307 0828 0cc0 a960 a9a3 fa19 0bc0
000007c0: f0f6 43f3 bb30 0dc0 4ce4 90fb 6448 0ac0
000007d0: ee0f fe5a ae05 0ac0 73ad 7d9f 229c 10c0
000007e0: b840 7054 a522 0ac0 b25b 3c6c 466a 0bc0
000007f0: 6fb0 0bb2 dbba 0bc0 cd58 18fd 7c01 0ec0
-3.1133621714884976 -3.5141035296330556 -2.9845390564544134 -2.7649229234505386 -3.1841866577130156 -2.9771680235672333 -3.141741968407812 -3.0663843403206226
-3.040684075448639 -3.2933776803469894 -3.461734425016624 -3.527984485850113 -2.120227967098574 -3.6588573407709615 -3.209749427607873 -3.28492200319279
-3.451584454828521 -2.9774657080109215 -3.520192699588907 -3.2088673414596647 -3.316479857968361 -3.0031789183273956 -3.1802799626273024 -2.8272709462224572
-3.525279709853472 -3.0021152281291354 -3.3392099173582603 -3.174137896470025 -3.1731226076401535 -3.2506961765041527 -2.704264171621058 -3.4062255713620875
-3.580696402763471 -3.236844986739313 -3.213253815826212 -3.643552163849489 -3.152203819983828 -3.3893615330863756 -3.238139361153118 -3.2181688258497867
-3.272582425783799 -3.0348399044019563 -3.5920974940304884 -3.1668079909602738 -2.955099792582503 -2.748643270950533 -3.3591590114225323 -2.6248815601526507
-3.1095030249308824 -3.3305746544819117 -3.1734625891640698 -3.1413392099696402 -3.0206823916232985 -3.9658839627959743 -2.6761898105202824 -3.476221168222753
-3.5312934483131513 -3.313487817542828 -3.6735844721545012 -3.3025274301505467 -2.9633898112552894 -3.5405499332520627 -3.265738752990032 -3.316119878153106
-3.8711099272487197 -3.2614506699422567 -3.5345746397645845 -3.149133308635876 -3.209490209054932 -3.4952746876294114 -3.4302921820072054 -3.2307009416384114
-3.1170132700610123 -3.6815460293210913 -3.3912859762494456 -3.234954523602062 -3.2372767504974562 -2.9481226518766306 -3.849687781611799 -3.387198548499538
-3.31850063833003 -3.2756642779649137 -2.854372004079552 -2.603778851977956 -2.536071358904745 -3.51363018415561 -3.7419970775300917 -3.5171222781393814
-2.9225713598305996 -3.3551161366385185 -3.402355321409694 -3.7742645712713014 -3.4309635898334556 -2.942722180401725 -3.5428657565765107 -3.313535229608634
-3.615894753244483 -3.321126964083931 -3.54500516888737 -3.4214512225606475 -3.3827232068645627 -3.699702940989287 -2.9358577845606915 -3.5439760835735736
-3.62056392034721 -3.39244569517832 -3.3077787182451384 -3.332027126186991 -3.5359717504171004 -3.757798690852114 -3.529954583993755 -3.499228459738304
-3.6623867044282443 -3.5213482033338037 -3.0496627222786112 -3.129146211390324 -3.397259766580034 -2.9904510845982224 -3.3514134658111523 -3.4583973117044056
-3.4373293233762694 -3.49620293330577 -3.644530843365654 -3.3280912124088387 -3.3549040563152106 -3.4127250180899993 -3.4174678819435393 -2.839103336495379
-3.577363643887674 -3.5047566506505365 -3.1850368407794636 -3.606819871344067 -3.2809376558825436 -4.008095790047312 -3.4892458520788887 -3.523747832470021
-3.290099786755206 -3.672844322644129 -3.37226768763794 -2.9091379728164983 -3.3389689145171872 -3.415381542373233 -3.459882920765077 -3.517515494166361
-3.77671612101581 -3.483339987912949 -3.394609641248032 -3.2339409807537165 -3.2350574528932063 -3.266250645006769 -2.934052357203092 -3.73391463878761
-3.388232086160583 -3.144212832636349 -3.3311457455802915 -2.965252729765882 -3.390385540438742 -3.736135210100395 -3.4013809466829357 -3.275912296297427
-3.133936295088511 -3.5510495007322485 -3.2976392950466242 -3.20353055329051 -3.774306163447854 -3.6799245572363857 -2.860468486697576 -3.850779154374669
-3.8667050786127932 -3.5786586903868436 -3.458084689272927 -3.3509414452685027 -3.69797271934491 -3.696845733736463 -3.1575516717993937 -3.3979415023141954
-3.4911850967012636 -3.925475805457758 -3.194301300075179 -3.2279613727866003 -3.7537598807076042 -3.394856979018327 -3.5033489898388566 -3.2915131385796075
-3.394385478301994 -3.5491633324769762 -3.2529278172202702 -3.139980708768471 -3.309733784037747 -3.359522236898258 -3.4524280695999026 -3.2624233698560667
-2.891984829758557 -4.062882840491987 -3.551528862443249 -3.463967027274191 -3.6074197238906334 -3.425422729485309 -3.3278707237364697 -3.713062128814716
-3.2792918980081085 -3.623501328715784 -3.9595595948885594 -3.380876504182103 -3.782713723193164 -3.503869863226124 -3.7432380194754273 -3.6897150860575816
-3.059768522088009 -3.353505472972014 -4.010561948321257 -3.221199309207327 -3.3802354721773424 -3.388403258222909 -3.237118930912324 -3.4210379729148612
-3.4822875370692055 -3.40824365721927 -3.506166342869573 -3.500161226398749 -3.8197069473360177 -3.503047260429824 -2.686338621000224 -3.280003819338622
-3.5773492515048892 -3.2517090217435882 -3.0743961769493877 -3.0041663369891154 -3.518870875964358 -3.3783874738775728 -3.7365639801944 -3.4479144087376086
-3.644415005065285 -3.803873533412441 -3.4615886390846646 -3.448920478713063 -3.6799813939458037 -4.163613512896987 -2.4974080363790496 -4.10972963726496
-3.719529406121228 -3.275047444149158 -3.0746067503816796 -3.268987453727769 -3.619872945250982 -3.5008397382102983 -3.519546564773376 -3.3876850877823768
-3.648795986663451 -3.285348859175917 -3.252773962858547 -4.1524758263070565 -3.266916904140171 -3.4268921333236557 -3.4662393483941325 -3.750726678185947

lam_centers f8 [9028]
00000000: 14ae 47e1 3a84 bf40 5c8f c2f5 a884 bf40
00000010: 7b14 ae47 e184 bf40 0ad7 a370 3d85 bf40
00000020: e27a 14ae 8785 bf40 f628 5c8f 0286 bf40
00000030: 295c 8fc2 7586 bf40 1f85 eb51 b886 bf40
00000040: 52b8 1e85 ab87 bf40 0000 0000 0088 bf40
00000050: ae47 e17a 5488 bf40 14ae 47e1 7a88 bf40
00000060: 0000 0000 c088 bf40 6666 6666 e688 bf40
00000070: 0000 0000 8089 bf40 3f0a d7a3 b089 bf40
00000080: 1f85 eb51 f889 bf40 703d 0ad7 638a bf40
00000090: e27a 14ae c78a bf40 0000 0000 408b bf40
000000a0: e27a 14ae 878b bf40 0000 0000 008c bf40
000000b0: 0000 0000 808c bf40 85eb 51b8 5e8d bf40
000000c0: b81e 85eb 918d bf40 295c 8fc2 f58d bf40
000000d0: f628 5c8f 828e bf40 c1f5 285c cf8e bf40
000000e0: cdcc cccc 4c8f bf40 b81e 85eb 918f bf40
000000f0: 5c8f c2f5 2890 bf40 703d 0ad7 a390 bf40
00000100: 3f0a d7a3 3091 bf40 ec51 b81e 8591 bf40
00000110: c1f5 285c cf91 bf40 5c8f c2f5 6892 bf40
00000120: ec51 b81e c592 bf40 f628 5c8f 0293 bf40
00000130: 1f85 eb51 7893 bf40 14ae 47e1 ba93 bf40
00000140: 14ae 47e1 fa93 bf40 c1f5 285c 8f94 bf40
00000150: 85eb 51b8 de94 bf40 703d 0ad7 2395 bf40
00000160: 85eb 51b8 5e95 bf40 0ad7 a370 bd96 bf40
00000170: 85eb 51b8 1e97 bf40 6666 6666 6697 bf40
00000180: 7b14 ae47 6198 bf40 703d 0ad7 2399 bf40
00000190: a470 3d0a 9799 bf40 295c 8fc2 359a bf40
000001a0: ae47 e17a 949b bf40 ec51 b81e c59b bf40
000001b0: 1f85 eb51 f89b bf40 90c2 f528 1c9c bf40
000001c0: 6666 6666 669c bf40 cdcc cccc 8c9c bf40
000001d0: 0000 0000 c09c bf40 6666 6666 269d bf40
000001e0: b81e 85eb 919d bf40 cdcc cccc 0c9e bf40
000001f0: 0000 0000 409e bf40 d7a3 703d 8a9e bf40
00000200: 1f85 eb51 b89e bf40 90c2 f528 dc9e bf40
00000210: 0ad7 a370 fd9e bf40 48e1 7a14 2e9f bf40
00000220: 295c 8fc2 759f bf40 3f0a d7a3 b09f bf40
00000230: 85eb 51b8 de9f bf40 6666 6666 26a0 bf40
00000240: 1f85 eb51 f8a0 bf40 5c8f c2f5 28a1 bf40
00000250: 6666 6666 66a1 bf40 e27a 14ae 07a2 bf40
00000260: 85eb 51b8 dea2 bf40 9a99 9999 19a3 bf40
00000270: cdcc cccc 8ca3 bf40 b81e 85eb d1a3 bf40
00000280: 52b8 1e85 2ba4 bf40 3433 3333 73a4 bf40
00000290: b81e 85eb 91a4 bf40 3f0a d7a3 f0a4 bf40
000002a0: 3f0a d7a3 30a5 bf40 f628 5c8f 02a6 bf40
000002b0: d7a3 703d 4aa6 bf40 9a99 9999 99a6 bf40
000002c0: a470 3d0a 17a7 bf40 b81e 85eb 51a7 bf40
000002d0: 1f85 eb51 b8a7 bf40 ae47 e17a 54a8 bf40
000002e0: 1f85 eb51 78a8 bf40 b81e 85eb d1a8 bf40
000002f0: 9a99 9999 59a9 bf40 0000 0000 c0a9 bf40
00000300: 48e1 7a14 eea9 bf40 d7a3 703d 4aaa bf40
00000310: 48e1 7a14 eeaa bf40 ec51 b81e 45ab bf40
00000320: 295c 8fc2 75ab bf40 ae47 e17a 94ab bf40
00000330: 3433 3333 f3ab bf40 6666 6666 66ac bf40
00000340: 14ae 47e1 faac bf40 f628 5c8f 42ad bf40
00000350: 48e1 7a14 6ead bf40 9a99 9999 59ae bf40
00000360: cdcc cccc 8cae bf40 e27a 14ae c7ae bf40
00000370: f628 5c8f 02af bf40 5c8f c2f5 28af bf40
00000380: 85eb 51b8 5eaf bf40 ec51 b81e c5af bf40
00000390: ae47 e17a 14b0 bf40 c1f5 285c 4fb0 bf40
000003a0: 0ad7 a370 7db0 bf40 cdcc cccc ccb0 bf40
000003b0: 52b8 1e85 2bb1 bf40 52b8 1e85 abb1 bf40
000003c0: a470 3d0a 17b2 bf40 703d 0ad7 63b2 bf40
000003d0: 0ad7 a370 bdb2 bf40 48e1 7a14 6eb3 bf40
000003e0: 48e1 7a14 aeb3 bf40 3433 3333 73b4 bf40
000003f0: b81e 85eb d1b4 bf40 f628 5c8f 02b5 bf40
00000400: b81e 85eb 51b5 bf40 7b14 ae47 a1b5 bf40
00000410: e27a 14ae 07b6 bf40 9a99 9999 99b6 bf40
00000420: e27a 14ae 07b7 bf40 703d 0ad7 23b7 bf40
00000430: 5c8f c2f5 68b7 bf40 a470 3d0a 97b7 bf40
00000440: cdcc cccc ccb8 bf40 f628 5c8f c2b9 bf40
00000450: 3f0a d7a3 f0b9 bf40 6666 6666 26ba bf40
00000460: f628 5c8f 42ba bf40 703d 0ad7 63ba bf40
00000470: 0000 0000 c0ba bf40 295c 8fc2 35bb bf40
00000480: e27a 14ae 87bb bf40 3f0a d7a3 b0bb bf40
00000490: 90c2 f528 1cbc bf40 0ad7 a370 7dbd bf40
000004a0: f628 5c8f 42be bf40 d7a3 703d cabe bf40
000004b0: 48e1 7a14 2ebf bf40 0ad7 a370 7dbf bf40
000004c0: e27a 14ae c7bf bf40 14ae 47e1 3ac0 bf40
000004d0: 1f85 eb51 78c0 bf40 3f0a d7a3 b0c0 bf40
000004e0: 6666 6666 26c1 bf40 90c2 f528 5cc1 bf40
000004f0: 5c8f c2f5 a8c1 bf40 a470 3d0a 17c2 bf40
00000500: 295c 8fc2 75c2 bf40 cdcc cccc 8cc3 bf40
00000510: 6666 6666 a6c4 bf40 703d 0ad7 23c5 bf40
00000520: ae47 e17a 54c5 bf40 703d 0ad7 a3c5 bf40
00000530: cdcc cccc 4cc6 bf40 0000 0000 40c7 bf40
00000540: c1f5 285c 8fc7 bf40 ec51 b81e c5c7 bf40
00000550: cdcc cccc 0cc8 bf40 52b8 1e85 6bc9 bf40
00000560: 14ae 47e1 bac9 bf40 cdcc cccc 0cca bf40
00000570: 6666 6666 66ca bf40 b81e 85eb d1ca bf40
00000580: c1f5 285c 0fcb bf40 ae47 e17a 54cb bf40
00000590: 703d 0ad7 a3cb bf40 3f0a d7a3 f0cb bf40
000005a0: 3433 3333 33cc bf40 3433 3333 73cd bf40
000005b0: d7a3 703d cacd bf40 ec51 b81e 05ce bf40
000005c0: 3433 3333 73ce bf40 cdcc cccc ccce bf40
000005d0: 3f0a d7a3 b0cf bf40 90c2 f528 dccf bf40
000005e0: 3433 3333 73d0 bf40 b81e 85eb d1d0 bf40
000005f0: c1f5 285c 0fd1 bf40 ae47 e17a 54d1 bf40
00000600: ec51 b81e 05d2 bf40 3f0a d7a3 30d2 bf40
00000610: cdcc cccc ccd2 bf40 3433 3333 f3d2 bf40
00000620: 90c2 f528 dcd3 bf40 c1f5 285c 4fd4 bf40
00000630: 5c8f c2f5 e8d4 bf40 7b14 ae47 61d5 bf40
00000640: 52b8 1e85 abd5 bf40 0000 0000 40d6 bf40
00000650: f628 5c8f 82d6 bf40 e27a 14ae c7d6 bf40
00000660: b81e 85eb 11d7 bf40 0ad7 a370 3dd7 bf40
00000670: e27a 14ae 87d7 bf40 0000 0000 c0d7 bf40
00000680: 3f0a d7a3 f0d7 bf40 48e1 7a14 2ed8 bf40
00000690: 5c8f c2f5 68d8 bf40 3f0a d7a3 b0d8 bf40
000006a0: cdcc cccc ccd8 bf40 3f0a d7a3 30da bf40
000006b0: 5c8f c2f5 68da bf40 3f0a d7a3 b0da bf40
000006c0: cdcc cccc ccda bf40 703d 0ad7 23db bf40
000006d0: d7a3 703d cadb bf40 a470 3d0a 97dc bf40
000006e0: 1f85 eb51 b8dc bf40 7b14 ae47 e1dc bf40
000006f0: c1f5 285c 4fdd bf40 14ae 47e1 badd bf40
00000700: 6666 6666 a6de bf40 a470 3d0a 17df bf40
00000710: 6666 6666 a6df bf40 ec51 b81e 45e0 bf40
00000720: 5c8f c2f5 e8e0 bf40 7b14 ae47 61e1 bf40
00000730: 3f0a d7a3 b0e1 bf40 1f85 eb51 38e2 bf40
00000740: 7b14 ae47 a1e2 bf40 9a99 9999 d9e2 bf40
00000750: cdcc cccc 4ce3 bf40 9a99 9999 99e3 bf40
00000760: 0000 0000 c0e3 bf40 b81e 85eb 11e4 bf40
00000770: a470 3d0a 57e4 bf40 9a99 9999 99e4 bf40
00000780: d7a3 703d cae4 bf40 5c8f c2f5 28e6 bf40
00000790: 3433 3333 73e6 bf40 5c8f c2f5 e8e6 bf40
000007a0: 9a99 9999 19e7 bf40 1f85 eb51 78e7 bf40
000007b0: 3f0a d7a3 b0e7 bf40 6666 6666 26e8 bf40
000007c0: 85eb 51b8 5ee8 bf40 1f85 eb51 f8e8 bf40
000007d0: ec51 b81e c5e9 bf40 3433 3333 f3e9 bf40
000007e0: 85eb 51b8 1eea bf40 d7a3 703d 4aea bf40
000007f0: b81e 85eb d1ea bf40 c1f5 285c 0feb bf40
8068.23 8068.66 8068.88 8069.24 8069.530000000001 8070.01 8070.46 8070.72
8071.67 8072.0 8072.33 8072.48 8072.75 8072.9 8073.5 8073.690000000001
8073.97 8074.389999999999 8074.780000000001 8075.25 8075.530000000001 8076.0 8076.5 8077.37
8077.57 8077.96 8078.51 8078.809999999999 8079.3 8079.57 8080.16 8080.639999999999
8081.190000000001 8081.52 8081.809999999999 8082.41 8082.77 8083.01 8083.47 8083.73
8083.98 8084.559999999999 8084.87 8085.139999999999 8085.37 8086.74 8087.12 8087.4
8088.38 8089.139999999999 8089.59 8090.21 8091.58 8091.77 8091.97 8092.110000000001
8092.4 8092.55 8092.75 8093.15 8093.57 8094.05 8094.25 8094.54
8094.72 8094.860000000001 8094.99 8095.18 8095.46 8095.690000000001 8095.87 8096.15
8096.97 8097.16 8097.4 8098.030000000001 8098.87 8099.1 8099.55 8099.82
8100.17 8100.450000000001 8100.57 8100.940000000001 8101.190000000001 8102.01 8102.29 8102.6
8103.09 8103.32 8103.72 8104.33 8104.47 8104.82 8105.35 8105.75
8105.93 8106.29 8106.93 8107.27 8107.46 8107.58 8107.950000000001 8108.4
8108.98 8109.26 8109.43 8110.35 8110.55 8110.780000000001 8111.01 8111.16
8111.37 8111.77 8112.08 8112.309999999999 8112.49 8112.8 8113.17 8113.67
8114.09 8114.389999999999 8114.74 8115.43 8115.68 8116.450000000001 8116.82 8117.01
8117.32 8117.63 8118.030000000001 8118.6 8119.030000000001 8119.139999999999 8119.41 8119.59
8120.8 8121.76 8121.940000000001 8122.15 8122.26 8122.389999999999 8122.75 8123.21
8123.530000000001 8123.690000000001 8124.110000000001 8125.49 8126.26 8126.79 8127.18 8127.49
8127.780000000001 8128.23 8128.47 8128.690000000001 8129.15 8129.360000000001 8129.66 8130.09
8130.46 8131.55 8132.65 8133.139999999999 8133.33 8133.639999999999 8134.3 8135.25
8135.559999999999 8135.77 8136.05 8137.42 8137.73 8138.05 8138.4 8138.82
8139.059999999999 8139.33 8139.639999999999 8139.940000000001 8140.200000000001 8141.450000000001 8141.79 8142.02
8142.450000000001 8142.8 8143.690000000001 8143.860000000001 8144.450000000001 8144.82 8145.059999999999 8145.33
8146.02 8146.190000000001 8146.8 8146.950000000001 8147.860000000001 8148.309999999999 8148.91 8149.38
8149.67 8150.25 8150.51 8150.780000000001 8151.07 8151.24 8151.530000000001 8151.75
8151.940000000001 8152.18 8152.41 8152.690000000001 8152.8 8154.190000000001 8154.41 8154.690000000001
8154.8 8155.139999999999 8155.79 8156.59 8156.72 8156.88 8157.309999999999 8157.73
8158.65 8159.09 8159.65 8160.27 8160.91 8161.38 8161.690000000001 8162.22
8162.63 8162.85 8163.3 8163.6 8163.75 8164.07 8164.34 8164.6
8164.79 8166.16 8166.450000000001 8166.91 8167.1 8167.47 8167.690000000001 8168.15
8168.37 8168.97 8169.77 8169.950000000001 8170.12 8170.29 8170.82 8171.059999999999

a_coeff f8 []
00000000: 0000 0000 0000 f03f
1.0

b_coeff f8 []
00000000: 0000 0000 0000 0000
0.0

c_coeff f8 []
00000000: 0000 0000 0000 0000
0.0
