experiments/04_full_bandwidth_HPF/extrinsic_MAP.pt (torch, 1759 bytes, 3 tensors)

ln_sigma_angs f8 []
00000000: bd13 270f 1d27 06c0
-2.769098394756354

linear_model.weight f8 [1, 15]
00000000: 1313 42c8 e604 d9bf 480a 6ee7 db72 eebf
00000010: bd0c 1e47 c1a7 823f 66c9 579c f79e 0abf
00000020: 157b 04c7 370d 7d3e 48fb ebe6 a6d1 00be
00000030: 5ee8 3994 2b4a 743d 884c 5bec df92 f5bc
00000040: 5c27 d4d5 0520 6c3c 4e1a e0f1 9b44 ecbb
00000050: 5cdf 51a3 fa9a 633b 48e6 3bc2 2be7 e2ba
00000060: 9d55 eb29 a68c 5b3a f050 6a2e f5bd d9b9
00000070: 0705 e2b9 f980 5339
-0.39092416340308594 -0.9515208740343235 0.009109029753523118 -5.0775462607693594e-05 1.0822576413216447e-07 -4.894959557858649e-10 1.1533374767452527e-12 -4.790330198714953e-15
1.2197313055029433e-17 -4.7887862378735874e-20 1.2973756777324706e-22 -4.886313935809498e-25 1.390889783799181e-27 -5.076718777093035e-30 1.5025189082477666e-32

linear_model.bias f8 [1]
00000000: de70 296c 4ca8 f03f
1.0410885071824434
